data/ISELTA-ESG-full_edges_model.pth (torch_old, 80135 bytes, 15 tensors)

gnn.conv_params.0.weight f4 [32, 11]
00000000: d5a9 a03e c4c8 843e ebe1 9abe dbb7 10be
00000010: acf3 fabd 18da 333e c808 2cbd b090 b93c
00000020: 57dc 16be 2897 c1bd 13ae 873e 0729 8dbe
00000030: 8d6f 8b3b 3400 073e 3e75 83bc 1423 d43d
00000040: a119 15be 8e74 28be 021a 733e 282b 6938
00000050: be5b 363e 1c4a 73be a95a aebe baaa 02be
00000060: d835 a23e a640 743e 038e 923e 7120 a8be
00000070: bd3e 533e a019 4bbe c82c 643e d020 96bd
00000080: 4e34 ab3e a674 46be 30b0 5bbe d846 05be
00000090: b028 c4ba 8265 c7bc a7f5 703e 67c8 6d3e
000000a0: 229a 92bd ef9e ba3d 695c 143e 1903 ea3d
000000b0: 3555 89bd 07d0 52be d986 803e 91c5 ba3e
000000c0: 4fd6 2cbe 4799 903e cb04 fbbc f810 0d3d
000000d0: d98f 2dbd ac51 06bb 5490 1f3d 0fe3 33be
000000e0: fe6c ad3d 2265 053e 8c44 803e f1cc 443e
000000f0: 25a5 eebd c80d b0be df46 f73c 9d0e 0cbd
00000100: 970f 953e 1673 9c3e 0ebb 823e 77f6 9f3e
00000110: ddc1 543d 89ff a53c 8c71 81be 6e1b d9bc
00000120: 2354 a13d 18fe aabe d07f 3d3e c056 573e
00000130: d268 8fbe 85b6 ac3d 5354 283e e12d a13e
00000140: 4320 9f3d 3293 ffbd 7720 5f3e f071 7cbe
00000150: 8ca7 18be 6ce3 5f3d 4887 1dbe 1fa3 7f3e
00000160: c1c8 0d3e 3592 efbd 276d a1be 50d9 90be
00000170: 6b07 bb3b cc66 033c e093 da3c 87c3 93be
00000180: e2f3 fb3d 0370 89be d5a2 ad3d c11f 4cbd
00000190: ab83 2dbe db3c f0bd 03e7 86bd f9ca 60bd
000001a0: 2b44 23be 4a93 9dbe 6f97 5dbe efb3 df3d
000001b0: 5e5f 673e a287 85be 080f 4ebe 8041 d5bd
000001c0: f2bd bfbd d58b b1bb 961e c63d 6718 643e
000001d0: d29e f2bc a8e3 5cbe 8c32 5ebe 72c1 bd3d
000001e0: a9e4 803d c988 5abe 7fba e4bc f2b1 9f3e
000001f0: 9b37 b63e 85ae 2abd 10cf 6b3e 9164 c1bc
00000200: edd7 71be 212c 2d3d bc71 bcbb dfde 423d
00000210: b053 61be 5e42 fdba ba1c 60be 0de4 a73e
00000220: 4d68 71be a418 99be 2378 ef3d 50dd bd39
00000230: 131d 52bd c9a9 283e 30a3 853e 9db7 973e
00000240: 783d c63b b644 573b 6174 4e3e 17c6 ae3e
00000250: 436a 23bd 325e 39bd 1397 83bb 60d6 143d
00000260: 85e9 4ebe a1ac bd3e 94fe abbc 95a4 023e
00000270: 943e 9e3e 10db 0d3e 9e1e ccbd 6b14 923e
00000280: 29e5 893d 5a7e f3bd e441 933e 8afa 9cbe
00000290: 0e9b 313e d2c1 70be c08b 893e aa08 97be
000002a0: 8055 c1bd d502 803e 5a6d 873d 03aa acbe
000002b0: d8a8 9fbe fd28 81be aee9 5d3e 090f 93be
000002c0: a450 46bd 8f00 41be e267 873e c4ee 5f3e
000002d0: 0cff e6bd 472e e9bd 3d8b 2fbe f6ed 18be
000002e0: 440a 0abe 8f5a 4cbd a155 7c3e e5b8 91be
000002f0: 5bf5 cb3d 22f7 adbe 598c ddbd 6176 1cbe
00000300: ffd8 2c3e acd8 c33d ea98 b8bd fa1c 93be
00000310: 43ac 4cbe c5ce aebe e3b5 7a3b 0684 3d3e
00000320: ed21 d7bc ec14 313e 78fd cabd ce6b 8d3d
00000330: a7a3 38be 5209 b2bd 317e 6a3e 5a0f 933e
00000340: c91b b63d 185b 03bd b3c3 c5bc 3938 93be
00000350: a8a5 b4bc ccf4 d5bd 5630 2a3e 6157 8cbe
00000360: 46dd ea3d 86db 093d ba76 aabe c456 f0bd
00000370: 320a 5a3e 6588 73bd 6a93 363e c111 983e
00000380: ef6d 64be 47f3 c93d aca5 4e3e 34b0 1cbe
00000390: d2fd 4fbe ac89 273e ec8f babd c4b4 98bc
000003a0: 0455 96bd f25c a1be 165c 503d 9032 433d
000003b0: 5475 523e d8d8 6abd b218 a23e 27d2 85be
000003c0: 05d9 e33d 7cb8 a13e fad6 0a3e 22ae 043d
000003d0: 9922 a1bd ab27 c7ba d90d a73e 623c 8bbd
000003e0: 7207 713e f5e0 7cbe 11b1 c03d 37ff 33be
000003f0: 6dbe 87be 8796 9b3e 8893 86bd 87bf 04bd
0.31379572 0.25934422 -0.30250487 -0.14132635 -0.12253508 0.17563665 -0.042000562 0.022652
-0.1473249 -0.09452659 0.26499996 -0.27570364 0.0042552412 0.13183671 -0.016047116 0.10358253
-0.14560558 -0.16450712 0.2374039 5.559172e-05 0.17808434 -0.23758739 -0.34053543 -0.1276044
0.31681705 0.23852786 0.2862397 -0.3283725 0.20629402 -0.19833994 0.22282708 -0.07330477
0.33438343 -0.19380435 -0.21453929 -0.13015306 -0.0014965739 -0.024340395 0.23531209 0.23220979
-0.07158305 0.091123454 0.14488377 0.11426372 -0.06705705 -0.20587169 0.2510288 0.36478856
-0.16878627 0.2824194 -0.030641934 0.03444001 -0.042373512 -0.0020495458 0.038956 -0.17567085
0.08468054 0.1302686 0.25052297 0.19218804 -0.116525926 -0.34385514 0.030185161 -0.034193624
0.29113457 0.30556554 0.25533336 0.31242725 0.051942695 0.02026345 -0.25281942 -0.026502337
0.07877376 -0.33396983 0.18505788 0.21029186 -0.2800966 0.0843325 0.16438417 0.31480315
0.07769825 -0.12479247 0.21789728 -0.24652839 -0.14907664 0.054660246 -0.15383637 0.2496457
0.13846113 -0.11697809 -0.3152859 -0.28290796 0.0057076714 0.008020114 0.02668184 -0.28860113
0.12302376 -0.2684327 0.08478323 -0.04983497 -0.16944759 -0.11730357 -0.06587031 -0.05488107
-0.15943973 -0.30776435 -0.21639799 0.109229915 0.22594973 -0.26080042 -0.20122921 -0.10412884
-0.09362401 -0.0054182806 0.096738026 0.22274934 -0.029616747 -0.21571219 -0.2169897 0.092654124
0.062936135 -0.21341242 -0.02792096 0.3119045 0.355893 -0.04167034 0.23028207 -0.023607524
-0.23617525 0.042278413 -0.005750863 0.047575828 -0.2200458 -0.0019322147 -0.21885958 0.32791176
-0.23574944 -0.29901612 0.11692836 0.0003621378 -0.05129726 0.16471018 0.26101065 0.29632273
0.006049808 0.0032847351 0.20161583 0.34135506 -0.03989626 -0.045255847 -0.004015812 0.036337256
-0.20206268 0.37045768 -0.020995416 0.12758096 0.30907118 0.13853097 -0.09966777 0.28531203
0.06733162 -0.11889334 0.28761208 -0.30659896 0.17344305 -0.23511437 0.26864433 -0.29498798
-0.09440136 0.2500216 0.06612654 -0.3372346 -0.31183505 -0.25226584 0.21671173 -0.28722408
-0.04841675 -0.1884787 0.26446444 0.21868426 -0.11279115 -0.1138578 -0.17142959 -0.14934525
-0.13480479 -0.04989105 0.2464204 -0.28461376 0.09958907 -0.3397761 -0.10817785 -0.15279533
0.16879652 0.09562811 -0.09013541 -0.28733045 -0.19987588 -0.34142128 0.0038255386 0.18507394
-0.026261294 0.17293137 -0.099116266 0.06905328 -0.18031178 -0.08693184 0.228997 0.2872265
0.08892018 -0.032069296 -0.024141168 -0.28753832 -0.022051647 -0.10447082 0.16620001 -0.27410415
0.11467986 0.03365662 -0.33293706 -0.11735299 0.21292952 -0.059456248 0.17829672 0.29701045
-0.22307561 0.098608546 0.20180386 -0.15301591 -0.20311669 0.16361111 -0.09109482 -0.018640883
-0.07340434 -0.31516224 0.05086907 0.047655642 0.2055257 -0.057335705 0.31659466 -0.26136896
0.111253776 0.31586063 0.1355857 0.03239263 -0.07867927 -0.0015194317 0.32627752 -0.067986265
0.23537996 -0.2469519 0.09408773 -0.17577825 -0.2651247 0.3038828 -0.06571108 -0.032409217

gnn.conv_params.0.bias f4 [32]
00000000: b660 a43b d910 e4ba 6af1 d53c 2a81 5cba
00000010: 1555 01bd e345 fdb9 6efb 413c aecf 9a3c
00000020: 790a 533c 3e56 683b 5311 3d38 c926 f8bc
00000030: 0538 1cbb ee9f 953c 43b9 29bb c786 6839
00000040: 9140 76bc 4a9b 053b 6445 8d3b 20f4 963a
00000050: e871 61bb cc5d 52b7 1b71 7cba 78ee fa3b
00000060: 7403 d23a 276d b13a 4e6c 25bc e326 31ba
00000070: 058b 70bb c424 93bb 8eb4 143b b315 a83a
0.0050164117 -0.001740004 0.026116092 -0.0008411581 -0.03157528 -0.0004830799 0.011839731 0.018897858
0.012880915 0.0035451795 4.5077246e-05 -0.030291932 -0.0023837101 0.018264737 -0.0025897778 0.00022175453
-0.015030042 0.002038675 0.0043112505 0.0011516847 -0.0034400169 -1.2538814e-05 -0.0009629891 0.007657822
0.0016022758 0.0013536558 -0.010096623 -0.0006757809 -0.0036703956 -0.004490467 0.0022690627 0.001282385

gnn.conv_params.1.weight f4 [32, 32]
00000000: 03c4 193e 342a 4e3e db60 973d d152 743e
00000010: 8643 623e 084b 993c eb6f e63d ea79 96bd
00000020: 4dc1 d53d f4eb 113e 8a7c 323e 864f 40be
00000030: 6f42 413e 772b bdbc 7eeb 423e 6d2b 6c3e
00000040: ebac 61bc e1b5 05be 4e62 2cbd 8a30 f63d
00000050: b9ab 2d3e 07f4 31be 9ac5 72be 51bb 65be
00000060: f7d9 ba3d 142b 213e 99bd 6d3e b0f2 09bd
00000070: aa4e a93d 3969 e53c cd76 1fbd 6913 55be
00000080: fe82 653d 64df cbbd 4c1e 7b3e a602 5d3e
00000090: 838f 4c3e e48c 563e f5bf cebc 1f49 34b9
000000a0: 3335 2c3e a4df 6bbe 0072 0d3e e42c 4d3e
000000b0: f225 fdba 1ecf ad3d fea8 63be e43b 773e
000000c0: 8cb8 c0bc 7c91 61be 879b 34be 5339 7abd
000000d0: 120f 9cba 7a9b 1bbe 4142 fabd 95a0 303e
000000e0: 4a22 adbd 3a97 5dbe d03f 023e d8b1 a53c
000000f0: da46 f33c 9fc5 4bbe e4ae 6abe b742 863c
00000100: 0277 94b9 44ba 60be 5426 31be 630e b33c
00000110: 35f2 333d 3dfc 3c3c eb39 883d 91ac 8abe
00000120: bcc8 acbc 8f57 583e ba3b 10be 2932 133d
00000130: a749 783d da16 27be a94a 303e 1e6c 223e
00000140: 3e78 893e 2903 643e 4188 0aba 30c7 843e
00000150: 7df5 223d c33f 27be 19d4 f8bd 5f02 e6bd
00000160: a008 a9bc a3b7 8bbe 5952 d2bd b30d 8dbe
00000170: 49a8 ef3d be77 87be d160 6c3c dc5a fdbd
00000180: 9b8f e7bc 32ef 1c3e 45c6 5f3d 685a 8dbe
00000190: ac5b 4bbe 4cae 15be 96bb a63d d0f4 f7bc
000001a0: 46cb 8fbc 5c35 503e 4492 1fbe f0a7 25be
000001b0: 3a72 403e f588 5c3e 1349 533e ac6b 7d3e
000001c0: a204 0fbe 8164 e3bc 09fc 8b3e 4479 4c3e
000001d0: 1fec 0ebe 4772 55be 506c 273e d0b7 163e
000001e0: 901e 64be 279f 35be fea1 343e faa2 85be
000001f0: 1d6c fc3c 120e 173e 991f c03c ecfb 4b3c
00000200: 6216 0d3e 1acb de3d 8521 a8bc 599a d8bd
00000210: d26b 0abe 5aa4 013e 2e36 023e 159e 2e3e
00000220: f138 9e3d 460b 2dbe fdea ca3d 6b60 84bd
00000230: a1ce c1bd e4df 433e bccc ef3b e65d 973b
00000240: 3b7e f23d dd12 60be e715 b13d b6cd ffbd
00000250: 3105 113e d155 703e 3e7e 473c 4bd5 40be
00000260: 152d 01bd 7261 4dbe 4260 c03d 10e5 0b3e
00000270: 97c7 933d 5b7c 88be aaaf 02be 7263 cdbc
00000280: dfb6 3a3e 5ca6 863b b39c e93d 19db cebc
00000290: 9ea3 c3bc 9d11 a2bd 90fb 083e e250 7dbe
000002a0: 1d4a d23b 9c9a 743e e66a 81be 80ff 263e
000002b0: 4986 72be fde0 4e3e 584c 61be 63d7 503e
000002c0: 1740 5b3e 8ed7 70be 2079 8abe ccd6 ca3d
000002d0: 4498 dcbd a7f0 0c3e 59c4 0dbe 7377 513d
000002e0: 64fd 1f3d 4694 e3bd 8e4f 273b 52f5 213e
000002f0: d71d 8c3d ebea 1bbe b413 8cbe 30d2 323d
00000300: 293d 503e 756a 0b3e 2651 64be 48ef 60bd
00000310: ae84 2fbe ee80 b5bc d1e2 183e 5d74 4dbe
00000320: 6dd3 f2bb d60b 93bc 89d2 8e3d 8b73 7cbd
00000330: 265c e2bd a91c 5c3e a7c5 f2bd 1d90 18be
00000340: 5604 69bd 6ebb 0a3e e9a9 1dbe 31e0 703e
00000350: 52ab 74bd 7bf7 f43d 4cc3 603e 5eb1 7bbe
00000360: 162e 5f3e a66c 91bd d07a 283e a1f0 913d
00000370: 782d 40bd 18e3 1bbe 7dd8 153d 891c 103e
00000380: 35b9 333e 789e 553e dc53 4e3e 575e 86be
00000390: 5bf2 873e 4a70 353d caed 2abe 3e5e 6cbe
000003a0: 8f6d 8d3e 6495 f9bd a978 673d 75f7 04be
000003b0: 710a 8dbe a23d 153e 5751 58be 9f24 a23c
000003c0: 8741 8d3e 8761 6b3e 59ba 6a3d c085 eebd
000003d0: 111a 7cbe 8151 f8bd f40d d4bd 6241 883e
000003e0: e53e a4bd 2cdf 8bbe a700 5ebc 3df4 5dbe
000003f0: c46b 27bc 38d2 17be 662a 563e 6d4b cebd
0.15016179 0.20133287 0.073915206 0.23859717 0.2209607 0.018712536 0.112518154 -0.07347472
0.1043726 0.14250165 0.1743032 -0.18780336 0.18872999 -0.023092015 0.19035146 0.2306344
-0.013774137 -0.13057663 -0.04208594 0.12020977 0.16960038 -0.17378245 -0.23708192 -0.22434737
0.09123605 0.15739089 0.23216857 -0.03367871 0.08266957 0.028004276 -0.038931657 -0.20808186
0.056033127 -0.09954718 0.24523276 0.21583042 0.1997662 0.20952183 -0.025238017 -0.00017193377
0.16817169 -0.23034531 0.13813019 0.20036656 -0.0019313677 0.0848677 -0.22232434 0.2414394
-0.023525499 -0.22028154 -0.17637454 -0.061089825 -0.0011906347 -0.15196028 -0.12219668 0.17248757
-0.08453806 -0.2163972 0.12719655 0.020226404 0.02969687 -0.19899605 -0.22918278 0.016389234
-0.00028317427 -0.21946055 -0.17299777 0.021857446 0.04393216 0.011534748 0.06651672 -0.27084783
-0.021091811 0.21127151 -0.14085284 0.03593651 0.060617115 -0.16317311 0.1721598 0.15861556
0.2684955 0.2226683 -0.00052845856 0.25933218 0.039784897 -0.16332917 -0.121498294 -0.11230921
-0.020633996 -0.2728854 -0.10269613 -0.27549514 0.1170202 -0.26458544 0.01442738 -0.12370846
-0.028266719 0.15325621 0.054632444 -0.27608037 -0.19859189 -0.1461727 0.08141248 -0.030268103
-0.017552983 0.20332855 -0.1558314 -0.16177344 0.18793574 0.2153662 0.20633344 0.24748105
-0.13966611 -0.027757885 0.27340725 0.19968134 -0.1395726 -0.20844375 0.16349912 0.14718556
-0.22277284 -0.17736493 0.1763992 -0.26100904 0.030813271 0.14751461 0.023452567 0.0124502
0.1377807 0.10878582 -0.020523796 -0.105763145 -0.13517693 0.12660351 0.1271598 0.17052491
0.077257045 -0.16898832 0.09908102 -0.06463703 -0.094632395 0.19128376 0.0073181074 0.004619348
0.11840483 -0.21882196 0.08646756 -0.12490408 0.14162137 0.23470236 0.012176095 -0.18831365
-0.031537134 -0.20056704 0.0939336 0.13661599 0.07215803 -0.26657376 -0.12762323 -0.025071833
0.18233822 0.004109187 0.11406841 -0.025250958 -0.02388173 -0.07913516 0.13377213 -0.24737886
0.0064175264 0.23887104 -0.2527687 0.16308403 -0.23684038 0.20203014 -0.22001779 0.20394664
0.21411167 -0.23519728 -0.27045536 0.099042505 -0.1077123 0.13763677 -0.13844432 0.051139306
0.03906001 -0.11112265 0.0025529596 0.15816239 0.06841629 -0.15226333 -0.27358782 0.04365748
0.20335831 0.13614829 -0.2229658 -0.054915696 -0.17140457 -0.022156205 0.14930274 -0.2006392
-0.007410458 -0.01794998 0.0697375 -0.061633628 -0.11052732 0.21495308 -0.118541054 -0.14898725
-0.0568889 0.13548061 -0.15396847 0.23523022 -0.059733696 0.11961266 0.219495 -0.24579379
0.21794924 -0.07100801 0.16453099 0.071259744 -0.046918362 -0.15223348 0.036583412 0.14073385
0.1755112 0.20861232 0.20149177 -0.2624385 0.2655209 0.04429654 -0.16692272 -0.23082826
0.2762265 -0.12186697 0.056511555 -0.12985022 -0.2754703 0.14574292 -0.21124779 0.019792853
0.27589056 0.22986422 0.05730662 -0.116466045 -0.24619319 -0.12124921 -0.10354224 0.26612383
-0.08019809 -0.27318704 -0.01354996 -0.21675201 -0.010218564 -0.14826286 0.20914611 -0.1007298

gnn.conv_params.1.bias f4 [32]
00000000: dc95 0e3c 75ad b23a cb1c 5e3c 2ecb c83c
00000010: ed34 6c3b 414b f2bb 09b5 2a3b 7c7c 54bc
00000020: c9b4 ac3c 5050 2c3c 9289 a53b 6e6d bd3c
00000030: 6e59 3a3b 9b0c 2bbc d26b 7b3c 282f 9e3c
00000040: 7b05 cebc f58c 73bc 1a12 dbbc d748 8aba
00000050: 278d b73c d440 e8bc aa31 a8bc d2de 913c
00000060: 09b8 a83c 74c2 bebc f6b5 163c 5b7c 113c
00000070: 111c dabc 1794 c13c 0c3d e13c 9bad babc
0.008702721 0.0013632016 0.0135566695 0.024510946 0.0036042288 -0.007394225 0.0026047847 -0.0129691325
0.021082299 0.010517195 0.0050518 0.02312347 0.0028434652 -0.010440017 0.015345531 0.019309595
-0.025149098 -0.01486515 -0.02674203 -0.0010550272 0.022406174 -0.028351225 -0.020531494 0.017806444
0.020595567 -0.023286082 0.009198656 0.008879746 -0.026624711 0.023630185 0.02749493 -0.02278786

gnn.conv_params.2.weight f4 [32, 32]
00000000: eaa4 3abd 5ac0 41be c616 37be 87fb 17be
00000010: ee6b 6fbe 9656 efbd 61be 8d3e 9de2 cabb
00000020: eb56 bdbc 4a06 5c3d 9113 1d3e 41ba 1bbc
00000030: b352 2ebe e318 d4bd 8036 6fbe 88e6 1c3e
00000040: 53a8 9e3d a647 93bd 7bda 28be ff31 71bc
00000050: 6dfa 17bd 7610 42be 0e9e 1d3e a3e6 88be
00000060: b485 8cbd 7bd7 8dbe 5156 6a3e 01a2 8abe
00000070: 1de9 0e3e 22cc 3e3e 002b e2bd 7e1d 383d
00000080: 3345 debc b409 cbbd 7afd 3ebd 2810 84bc
00000090: 385d 4dbe 1906 85be a4d8 72be 2ae3 803e
000000a0: 43b4 823d 6e90 eabd 29a1 c73d 7add 3cbe
000000b0: 7267 43be 91b8 89be 5983 f73c cee7 aa3d
000000c0: 80bb 103e 026e 603e 51e2 ccbd ddce 28bb
000000d0: 20b2 eb3d 763d 173e 83ff 463e 4843 d2bc
000000e0: cf3c 013e 5655 a33d 12a6 7ebe 1497 d33d
000000f0: bbbb 153e eb3b 52bd 3fb9 273e 3dff 1b3d
00000100: bfbc 783e f873 1ebd cd8f c4bd 1fbc 83be
00000110: 0496 6abe 5bac c33c e390 663e 8b36 28bd
00000120: b0f7 0bbd a9e6 e5bd 3c0a f33d 895b 9bbd
00000130: 9b22 313e 5bdd d93d 6d3e 14be 0596 5dbe
00000140: 2fd8 c33c 717b c03d 2ace 22be 2aa8 613e
00000150: 05b8 b23d 7da9 8fbd c734 993d 378b 80be
00000160: bd02 813e 68a3 af3d ed6e 133e b12c dfbd
00000170: a8c9 f8bc c73b 143e 66d2 c7bd 0906 34be
00000180: 7ea2 71be 6354 f0bc 6587 e73c 54ba bcbd
00000190: 2755 67be e26c 743e dfff 7e3d 9d92 20be
000001a0: aa57 cabd d7c9 7cbe 9246 b03d cfda 89be
000001b0: 7fd9 adbd 4166 55be bc0d 5cbe f2ef 8ebd
000001c0: 5361 ea3d 2558 7f3e 9463 233e d6a9 e13c
000001d0: 43af 38bd eb15 b93d a0b3 e83b c34e 45be
000001e0: 548c 5dbe 2002 703d deb6 0cbe 66b2 6fbe
000001f0: c238 3b3e 4a71 63bd d212 5ebe 2585 94bd
00000200: 0034 703e 0615 58be 480c 823e 563f 843d
00000210: ba0c 6cbe 7a81 e0bd a2b7 e13c 72e0 1a3e
00000220: 6f0b 1fbd 9d29 393e df41 e33d 309a 1f3e
00000230: 944a aabc a459 2cbd b614 52be 9165 8cbe
00000240: 5fdb 2cbe e92c 05be ccd2 0c3d 36c8 393e
00000250: feeb 75bc dbcd 36bd d238 7fbd a971 7d3e
00000260: a952 343e 2bcd 73be f021 153e f34e 51bd
00000270: 2c65 1dbe cdf8 c03d c5a1 163e b0dd 883e
00000280: 6274 463b 8e5a c73d c259 983c 9351 523e
00000290: 3db4 3cbe 3fa0 8bbe bf8a 863d 512f 0c3d
000002a0: bc3f b93d e045 173e b079 43bd 51b0 5abe
000002b0: 8d97 a2bd ca58 68bb 388d 4dbe 0ca9 1f3d
000002c0: d54b 2a3e 01f9 15bd 7a47 c33d 9984 fb3d
000002d0: 72cb 873e 93a1 ae3a d2f7 11bd ac96 073c
000002e0: 1384 c5bd decf 553e 5e57 023c 4ec9 6abe
000002f0: 636d 2abe b97c d3bd cb19 eb3c e404 51bc
00000300: be43 113e 921e 513e 8cc4 33bd 8205 31bc
00000310: 3489 803e 2cb2 2fbd c391 243e 5e60 33be
00000320: e3b4 473c 6688 213e 1118 79be b8e3 39be
00000330: 0b38 59bd f7bf 59be c27e 873e 9949 d73b
00000340: dcab bb3d bade 8abe e169 33be 0176 a0bd
00000350: becc 97bc c8d9 67be 5bd0 483d 7620 fc3d
00000360: 41c4 88be 3e16 4abe dbe1 d93c 3b09 043c
00000370: 0605 30be 9c39 3a3e cd82 20bd 71b7 183e
00000380: 0d56 51be b87a 26bd 95e8 31be 5fe3 cebc
00000390: 9c9b 313e 23ae ac3d dcc4 84be 4215 bf3d
000003a0: f7e2 59be 14ae 0abe 5f4d 123e 0160 253e
000003b0: b693 0f3e ca12 433d 1617 493c 8a88 18be
000003c0: 0e47 6ebe 3170 a2bd 8767 32be 938b 813e
000003d0: 12aa 983d 7fc7 443d 31da c63d d230 093e
000003e0: 4256 68bc b4c0 823d 9f7c 78be 1b1a 7d3e
000003f0: b5c6 7c3e 0234 2a3e 36e4 fa3d 9840 083e
-0.04556743 -0.18921033 -0.17879781 -0.14842044 -0.23381016 -0.11686437 0.2768431 -0.006191565
-0.023112735 0.053716935 0.15339495 -0.009504856 -0.17023735 -0.10356309 -0.23360634 0.15322316
0.07746949 -0.071914 -0.16489594 -0.014721393 -0.03710406 -0.18951592 0.15392324 -0.26738462
-0.06861439 -0.2770346 0.2288449 -0.27076724 0.13956113 0.18632558 -0.11043358 0.04495
-0.027132606 -0.0991396 -0.046628453 -0.016120985 -0.20055091 -0.25981215 -0.23715454 0.25173312
0.063820384 -0.11453329 0.09747536 -0.18443862 -0.1908243 -0.26898625 0.030213999 0.083449945
0.14134026 0.21916965 -0.10004104 -0.0025758066 0.11508584 0.14769539 0.19433407 -0.025666848
0.12620853 0.07975261 -0.24868038 0.1033155 0.14622395 -0.051326673 0.1637926 0.03808521
0.24290751 -0.038684815 -0.0959774 -0.25729463 -0.22908789 0.023885896 0.22516207 -0.04106764
-0.03417176 -0.112256356 0.118671864 -0.07585818 0.17298357 0.10637923 -0.14476939 -0.21639259
0.023906795 0.093985446 -0.15898958 0.22036806 0.08726505 -0.07014749 0.074807696 -0.25106212
0.25197402 0.08576089 0.14397784 -0.10897196 -0.030369595 0.14475928 -0.09756927 -0.17580427
-0.23597142 -0.029337114 0.028262803 -0.09215227 -0.22591077 0.2386966 0.062255736 -0.15680929
-0.09880002 -0.24686371 0.0860721 -0.2692475 -0.0848875 -0.20839788 -0.21489614 -0.0697936
0.11444344 0.24935968 0.15955955 0.027546804 -0.045089018 0.09037384 0.007101491 -0.19268326
-0.21635562 0.058595777 -0.13741633 -0.23407897 0.1828337 -0.055527963 -0.21686867 -0.07251958
0.23457336 -0.2110177 0.25399995 0.06457393 -0.2305173 -0.10962196 0.027553383 0.15124682
-0.038829263 0.1808228 0.11096548 0.15586162 -0.020787515 -0.042077675 -0.20515713 -0.2742124
-0.16880558 -0.13005413 0.03438072 0.1814278 -0.015009878 -0.044629913 -0.062310047 0.24750389
0.17609657 -0.23808734 0.14563727 -0.051100682 -0.15370625 0.09422455 0.14710148 0.26731634
0.0030281772 0.09734069 0.018597487 0.2053893 -0.1842813 -0.27270696 0.065694325 0.034224812
0.090453595 0.14772749 -0.047723472 -0.21356322 -0.07939062 -0.0035453313 -0.20073402 0.038979575
0.1663049 -0.03661442 0.095351174 0.1228115 0.26522404 0.0013323299 -0.03563673 0.008275669
-0.09644332 0.20880076 0.0079554 -0.22928354 -0.1664329 -0.10326523 0.028698822 -0.012757514
0.14185998 0.20421818 -0.043888614 -0.010804536 0.25104678 -0.042894527 0.16071229 -0.1751723
0.012189123 0.15774688 -0.24325587 -0.18153274 -0.053031962 -0.21264635 0.26463896 0.006570053
0.09163639 -0.27123052 -0.17520858 -0.078350075 -0.018530246 -0.2264167 0.04902683 0.12310879
-0.2671223 -0.19735047 0.026596954 0.008058841 -0.17189416 0.18186039 -0.03918724 0.14913727
-0.20442982 -0.040644377 -0.17373879 -0.025254903 0.17344517 0.084316514 -0.25931442 0.093302265
-0.21277986 -0.13542968 0.14287327 0.16149904 0.14021191 0.04762534 0.0122735705 -0.14895836
-0.23269293 -0.07931555 -0.17422305 0.253018 0.07454313 0.048041817 0.097095855 0.1339753
-0.014180722 0.063844115 -0.24266289 0.2471699 0.24685176 0.16621402 0.12250559 0.1330589

gnn.conv_params.2.bias f4 [32]
00000000: 2547 643b ffc7 743a e2b1 53bc 8763 64bc
00000010: 8316 183c 52e3 abbc b207 ab3c 458a b2bb
00000020: 652e d0bc 68c6 813a 9a51 c1bc 18da 0bbc
00000030: 4098 b93c 48a5 0cbc b0ee 98bc 4473 8f3c
00000040: d75a f23c 9ee8 ca3c 3cda b9bc 95e5 b7bb
00000050: 2345 32bc a395 cb3c 8392 cb3c 82a7 42bc
00000060: 10cc 5d3c 984b 6bbc 7478 983c 67a0 ad3c
00000070: 2d14 1a3c 3332 dabc 7152 20bc 06a6 a83b
0.0034832445 0.0009337663 -0.012920829 -0.013939745 0.009282711 -0.020982418 0.020877693 -0.005448612
-0.025412748 0.0009901049 -0.023598481 -0.008535884 0.022655606 -0.008584328 -0.018668503 0.017511018
0.029584331 0.024769124 -0.02268707 -0.005612085 -0.010880741 0.024851626 0.024850136 -0.011880757
0.013537422 -0.014361285 0.018612124 0.02119465 0.009404224 -0.026635265 -0.009785281 0.0051467447

gnn.conv_params.3.weight f4 [1, 32]
00000000: 2f21 cfbd aafb aebe f9f9 2d3d 41e0 ddbd
00000010: 287c 4abe 7460 343d feb7 933e 2715 c4be
00000020: b4a7 533e 45d4 ffbc ac47 40bc c1bb b83e
00000030: fbcf 943c 01d3 25be 1817 a1bd 0d20 99bd
00000040: 4134 93be 7ca7 8bbe 17a5 1a3e 868e aebe
00000050: b78d b5bd 3045 893e 82d8 e1bc 34c5 bbbd
00000060: 1a38 d8bd 9668 a5bd bbb7 8dbe d061 b4be
00000070: eb25 19bd dc08 7f3d 8fb4 873e ed26 fbbc
-0.10113751 -0.3417638 0.04247472 -0.10833789 -0.19773924 0.044037297 0.28851312 -0.38297388
0.20669442 -0.031229148 -0.011735838 0.36080745 0.018165579 -0.16193773 -0.07865733 -0.07476816
-0.28750804 -0.27276218 0.1510204 -0.34093112 -0.088649206 0.26810598 -0.02756906 -0.09168473
-0.105575755 -0.08076589 -0.27679238 -0.35230875 -0.037389677 0.06226431 0.26504943 -0.03065821

gnn.conv1d_params1.weight f4 [16, 1, 97]
00000000: 32ee f83b 27f6 4a3c dadf 74bd 3390 86bc
00000010: 5460 a73c 7f35 903d 9409 b8bd edd7 35bd
00000020: 3e5f 5fbc 3e73 8dbc bfd1 56bd 8b59 ae3d
00000030: f971 1abd e99b e63b 48da 62bd 4b17 c93d
00000040: a1a5 90bd 4076 a6bc cea8 a13d 034b 5e3d
00000050: bc74 b8bd 800f 803d 02bf 56bd cf8f 34bc
00000060: cbf8 2b3d 472c c63b a458 973d 72e4 1abd
00000070: 288b 8cbd ea84 c23b 1bba 093d 04b5 943d
00000080: 7116 50bd 1910 c038 d8c9 65bd a8f3 99bd
00000090: b1e2 c1bd 32bb 94bd 4191 84bd 0c82 043d
000000a0: dbf0 fcbc 59d6 773d 9b54 993d cc7d 89bd
000000b0: c97c 043c ea62 663d b951 aebd f3c0 d7bc
000000c0: 7c63 933d 4cf6 a0bd 9dda ba3d d14f ea3b
000000d0: 5586 bb3b 0641 b13d 1d81 bcbd 44f5 8b3d
000000e0: 9aea b6bd 6027 3f3d 37f1 07bc 05c6 9f3d
000000f0: 6827 653c e3de dcbd 97d5 333c 7315 9d3d
00000100: d28a 7abc 6696 b4bd 9c06 83bc a3f1 213d
00000110: b74d c43c fd29 053d 21f9 11bd c34e d0ba
00000120: 31ec 46bb 6466 243d 8b21 b13c 861f f23c
00000130: cbef bdbb b4f0 cdb9 058c 7e3d abd0 be3b
00000140: b35a debd a4d4 943c 46d1 a83d 6c58 9dbc
00000150: 909a 733d f9cd a9bd d37c 9dbc a41e 623d
00000160: f942 12bd e434 b4bc d390 5eb9 45c0 94bc
00000170: d1f9 d9bc a212 a03d 6dad 32bc d25a a9bc
00000180: 8025 853d c5bc d13c 291d 28bd e9dd 793d
00000190: 67f3 29bd 30f4 bc3d 308d a93d 1c05 7d3c
000001a0: 4876 cc3c cda8 3abd b0fc 81bd 9da9 78bd
000001b0: 1cd1 f93c 6e18 4f3d 6cba ba3a d4c6 27bd
000001c0: 044b d9bc 9a09 45bd 9a4d 7bbd ea20 893d
000001d0: da4a b0bd 5d80 9e3d e249 673d ee88 f6bc
000001e0: 0018 c1bc 7ad3 10bd af70 9abd 7e1e 6e3c
000001f0: bbcc 8bbd e008 a8bb 0b22 d9bc 65a9 8dbd
00000200: f9c4 96bd 0b94 aa3d 5d06 783d 0fe0 a73d
00000210: a642 003d bfc5 393d 5c4b 213d abfc 823d
00000220: 602d 2a3c dfb2 a13b b4dc 813d 7d08 3d3d
00000230: fd04 45bd 0357 7d3d a038 9d3d ddcd fcbc
00000240: 6d15 a2bd 584d b2bc 4e5f 74bd 0cd8 af3d
00000250: a9bf 96bc 0378 33bd af94 793d c9fd 1b3d
00000260: 8436 013d 99ac a13d 1e70 afbd 6fa5 4b3d
00000270: 76a2 44bd 02cd b03c ee5c eabc cdec a63d
00000280: 4c65 b7bc d23e 3a3c 38e6 84bd 9f09 6f3d
00000290: 0596 abbd 35b9 3b3d 72e9 793d 9afd 933d
000002a0: 7f5e 683d 2a2d bbbc d50e b13c a4e5 913c
000002b0: 642a a9bd f213 533d 58a8 a2bd 5834 fc3c
000002c0: 0820 923d 82df e6bc b31a e73b ac71 b23d
000002d0: 2566 933d 4069 943d 3004 89bd a082 a73c
000002e0: 2299 86bd 77fa 8d3c b6d1 9cbd 3ed9 563c
000002f0: e3b8 273d 1da1 a0bd 73aa 85bc 62d1 23bd
00000300: ba64 753d b9db 86bb 61d9 7e3d 71e8 9bbd
00000310: 5ec2 863c 7fc2 8d3d f47a 39bb 489f f4bc
00000320: 537c 33bd fc5c 8b3d 14ff 2e3d 1c79 acba
00000330: 1a08 5a3d 8618 61bd 83c4 8cbd 8edb 8dbc
00000340: fd17 8b3d eaf9 c5bd 29b1 33bd 5aaf 9f3c
00000350: c0ed 193d b729 373d 0dfc 823c 8c77 a4bd
00000360: b3fb 0abd 3b5d 8a3d 6335 9d3c 1018 603d
00000370: cb39 853d 4ea2 683d 1510 1dbd 4beb 3fbd
00000380: 60ec 58bc bc3e 65bc 7acc 64bc 01c8 bbbb
00000390: 9137 153c 18f4 643d 97c9 68bd 6fe3 153d
000003a0: 0361 c5bd f63d 513c d990 b9bd a244 b53d
000003b0: beda 97bd cc15 2abd e2c3 963d 2691 343d
000003c0: 6424 9d3d c9ac 523c a49a b3bd a9f6 86bd
000003d0: 46f4 8b3d d338 b5bd 0cb5 8f3d 590c 4cbc
000003e0: 2cee 5d3c 889a 9c3b 52e5 74bc cadd 0cbd
000003f0: 38a6 333d 803a 7cbc f267 163c b279 a53d
0.0075967545 0.012387789 -0.059783794 -0.016426181 0.020431675 0.070414536 -0.08986202 -0.044395376
-0.013633547 -0.017266866 -0.052446123 0.08513173 -0.03770635 0.007037629 -0.05538395 0.09818896
-0.07062841 -0.020320058 0.07893525 0.054270755 -0.0900664 0.062529564 -0.052428253 -0.011020615
0.041985314 0.0060477587 0.07389954 -0.03781552 -0.068624794 0.0059362547 0.03362475 0.072610885
-0.05080265 9.158272e-05 -0.056100696 -0.07517177 -0.09467066 -0.07262267 -0.064730175 0.032350585
-0.030876568 0.060507152 0.0748684 -0.06713447 0.008086392 0.056246676 -0.08511681 -0.026337123
0.071967095 -0.078594774 0.091237284 0.007150628 0.0057228007 0.0865498 -0.09204314 0.0683389
-0.089314654 0.04666841 -0.008297256 0.07801441 0.013986446 -0.107847 0.010976217 0.07670107
-0.015291886 -0.08817749 -0.015994363 0.039537083 0.023962839 0.032510746 -0.03563798 -0.0015892613
-0.0030353183 0.04013671 0.02162244 0.029556047 -0.005796408 -0.00039279985 0.06214525 0.005823215
-0.10857143 0.018167801 0.08243041 -0.019207202 0.059473574 -0.08291239 -0.01922456 0.055205002
-0.0357084 -0.021997876 -0.00021225521 -0.018158088 -0.02660838 0.07816054 -0.010905606 -0.02067319
0.06501293 0.025602708 -0.041043434 0.061002646 -0.041491892 0.092262626 0.082788825 0.015443113
0.024958745 -0.045571137 -0.063470244 -0.06070863 0.030495219 0.050560407 0.0014246232 -0.0409611
-0.026525028 -0.04810486 -0.061353303 0.06695731 -0.08608027 0.07739327 0.056466945 -0.03009459
-0.023571014 -0.03535793 -0.07541024 0.014533637 -0.068261586 -0.005128011 -0.02650549 -0.06917075
-0.07361788 0.08329018 0.060552943 0.08197033 0.03131356 0.0453546 0.03937851 0.06395849
0.010386795 0.004934653 0.06340924 0.046150673 -0.04810046 0.06185056 0.07676816 -0.030859882
-0.07914243 -0.021765396 -0.059661202 0.085861295 -0.018401938 -0.043815624 0.06093281 0.038083825
0.03154613 0.078942485 -0.085663065 0.049718317 -0.048006497 0.02158213 -0.028608765 0.08150635
-0.02238717 0.011367517 -0.06489223 0.058358785 -0.08378223 0.045830924 0.061013646 0.07226105
0.056730743 -0.022848684 0.021613518 0.017809696 -0.082600385 0.051532693 -0.07942265 0.030786678
0.07135016 -0.028182749 0.0070527433 0.087130874 0.07197217 0.07246637 -0.06690252 0.020448029
-0.065721765 0.017331345 -0.07657187 0.013113318 0.040947806 -0.0784323 -0.016316628 -0.039994605
0.059910513 -0.0041155485 0.062219027 -0.07612694 0.016450103 0.06921863 -0.0028302046 -0.029861107
-0.043819737 0.06804845 0.04272373 -0.0013158652 0.053230383 -0.054955028 -0.06873419 -0.017316606
0.06791685 -0.09666808 -0.043870125 0.019492794 0.03758025 0.044717517 0.015989328 -0.08030614
-0.033931445 0.067560636 0.019190496 0.054710448 0.06505164 0.05679541 -0.038345415 -0.046855252
-0.01323995 -0.013992008 -0.013964767 -0.0057306294 0.009107486 0.05589685 -0.056832876 0.03659385
-0.09637644 0.01277112 -0.090608306 0.08850981 -0.07414769 -0.041524693 0.073615804 0.044083737
0.076729566 0.012858578 -0.0876973 -0.065900154 0.06833701 -0.08848729 0.07016954 -0.012454116
0.013545554 0.0047791637 -0.014947252 -0.034391202 0.04385969 -0.015394807 0.009180056 0.08079852

gnn.conv1d_params1.bias f4 [16]
00000000: 3174 b03d 2cff 96bd e6f8 da3d 8e25 243d
00000010: 40a3 853d 1d8c 7d3d a01b a33d d877 cb3a
00000020: 42c5 31bd ec08 04bd 3b96 9abd 26e1 e5b9
00000030: 5165 6d3c a66f 103d fff9 65bd 124d 833d
0.08615912 -0.07372889 0.10692005 0.040074877 0.06525278 0.0619012 0.079642534 0.0015523387
-0.04340101 -0.03223507 -0.075481854 -0.00043846032 0.014489488 0.035262726 -0.056146618 0.06411184

gnn.conv1d_params2.weight f4 [32, 16, 5]
00000000: f65d 29bd 6439 a5bd 0fa9 d83d d29b e03c
00000010: d0b1 ae3d b56d 5a3b c0e5 b23d c0bd 1bbc
00000020: 4a26 38bd f182 213d 0dc0 1d3c 2bd8 10bd
00000030: 8eae 06bd 66cc e33c 8b7c 5b3d 2ad7 76bd
00000040: af67 55bd 6400 423d 4b1b 663d 2c7f c8bc
00000050: 5797 4bbd d945 e13c 76bd 9c3d b487 9bbd
00000060: 216a 923c f16c 423d a665 8e3c 6f85 b33d
00000070: 3041 e1bd 0e81 473d 65f5 c1bc 1dd2 87bd
00000080: b78f 053c 3259 2cbd 13da 9b3d 0645 53bd
00000090: 4bb2 b639 b5fe 8cbc ddf2 0f3d 8230 6f3d
000000a0: 4bc4 323d 1644 433b f739 b1bd d279 a9bc
000000b0: 65ad 71bd 5f23 3a3c 728a ee39 ddcf 87bd
000000c0: 1d15 56bd 1ddc f7bc 958f d3bd 874d 24bd
000000d0: c0a5 0ebd 68f5 8e3d aade 823d 233c 67bd
000000e0: eea1 0abb 0314 0e3c ecb8 20bc d325 223c
000000f0: f502 85bc 31d7 a5bd 16db b93d 85e5 80bd
00000100: f20b 08bd f1b7 5c3b 460f 023d 3a4f db3c
00000110: 4851 c13c d870 92bd 1a2d 86bd ec93 9d3d
00000120: 5e5f 99bd adc5 04bd 3724 4b3d a200 a13d
00000130: f220 993d a125 19bd adf2 413d d0e0 5f3d
00000140: 4cce 4ebd bc26 52bd 7e4a 6e3b de59 933d
00000150: f812 6fbc 2c70 243c 43ca 833d 4892 473d
00000160: f13b 093d a458 31bc 490b 193d ba33 a4bd
00000170: 3a4d 103c c1a3 3c3c 66e3 eabb c923 9b3d
00000180: 61ca 9fbd 6c13 37bd 84f9 863d 948e 15bc
00000190: caf3 ed3b ef2f 093c 30f8 893d a6d7 793b
000001a0: 6590 40bc cc53 b6bc 077c 56bc aa85 51bd
000001b0: 85ef 6f3c 134c b538 7a2f 4ebd 14d3 a8bc
000001c0: 3e7e 76bc 0373 073d 89a3 4dbd d743 a43d
000001d0: c4d2 99bd d5f7 a43d 0ca5 20b8 70e2 8f3c
000001e0: 0542 623c c74e 8bbd 8d8e 94bd b720 7c3a
000001f0: 37c4 90bb 01e7 c7bc 82e6 bcbc 9283 42bd
00000200: 8c7b b83c 7eed 80bd d3be 37bd f397 443d
00000210: 26e0 1e3d 9e5c ecbc 5f80 a1bd 77a4 e53c
00000220: 933b 833d 6dc9 ebbc ae79 8f3d 638c f3bc
00000230: 8029 4a3d a25c c53c 9c12 81bd 8e25 0c3c
00000240: d316 00bd a814 99bc cff5 8a3b 52c1 67bd
00000250: d0e0 d13c a8a9 513d 3d42 1bbc 2065 0d3d
00000260: 1431 96bd b83d 273c a84b 03bd 8ba5 ed3a
00000270: a832 c4bc a7be 2fbd 9293 85bc 96f7 99bd
00000280: d969 c8bc 9919 d1bc 1a63 a43d 2cdd f3bc
00000290: 327e 07af 583e 15bc 1b34 77bd 6b66 123c
000002a0: 1b80 60bd 6760 913c 117b a5bc 75e4 c23c
000002b0: d5cc 3d3d b3f8 6e3d 78ef 9d3d 1dd2 73bb
000002c0: 9e48 a9bd e4e9 4dbc c15a a3bd c25d a33a
000002d0: 9985 95bd d2a0 93ba 41c0 833d b09b 7e30
000002e0: 7917 892f b807 9b3d e7fb efbc addf 9abd
000002f0: 7ad2 063d e7a4 473d 8500 d8b3 b2d1 78bd
00000300: 8840 7a3b bec3 313c 20cf 4dbd 6274 cbbc
00000310: 6706 a42e e177 213d 96f3 2aae c312 9f3d
00000320: fd8c 9d3d ef30 d33b 4a9f 29bd e932 e6bc
00000330: 0a57 edbb ea50 8d35 73fa 2abd 3585 a0bd
00000340: a7a3 26bc d1c8 5bbd fd57 573c b561 07bd
00000350: 8518 2abc 453d b53c 8b2d 5a3b 7da0 17af
00000360: f053 173d 3edb 54bd faef e83b 813b 5cb3
00000370: 5657 a1bd 5ac0 213c 07b0 43bd 0cd0 dfbb
00000380: 28a2 dabc 0078 9dbd 4b1b 393d dc1d 213d
00000390: 71bd e938 5c7f 3abd 20f9 933d b2c7 7dbc
000003a0: 4003 4cbd f11b 5fbd 7d5b fa39 4777 1abd
000003b0: 8a1e 0dba 1fdf a4bd 4d27 ebbb 4cf5 9cbd
000003c0: 0f0d 8dbd ec90 97bd 8bf8 75bd 8d3c a53d
000003d0: ee4d bbbc 64af 77bd f6e8 b53d 38fd 363b
000003e0: 8ff2 95bd 5b2c 84bd 7b6f fe3b b095 90bd
000003f0: 24a1 f23c 97e9 a4bd 3abd a9bd 56f4 1e3d
-0.041349374 -0.08067587 0.1057912 0.02741805 0.08530009 0.003332955 0.087352276 -0.009505689
-0.04495839 0.039431516 0.009628308 -0.035362404 -0.032881312 0.027807426 0.05358557 -0.06026379
-0.052100834 0.047363654 0.056178372 -0.024474703 -0.049704876 0.027499126 0.07653324 -0.07594243
0.017872872 0.047467176 0.017382454 0.08765685 -0.10998762 0.04870706 -0.023676584 -0.06631873
0.00815194 -0.04207725 0.07609954 -0.051579498 0.00034846584 -0.017211298 0.03514372 0.05839587
0.04364423 0.002979522 -0.08653634 -0.020687971 -0.059003253 0.011360972 0.00045498047 -0.06631444
-0.05226623 -0.030256325 -0.103301205 -0.040113 -0.03482604 0.06980401 0.06390126 -0.056453835
-0.0021153647 0.008671763 -0.009809714 0.009896713 -0.016236762 -0.08097685 0.090749905 -0.062937774
-0.033214517 0.0033678974 0.031752847 0.026771177 0.023598328 -0.071504295 -0.06551571 0.076942295
-0.07488893 -0.03241508 0.049595084 0.07861449 0.07476987 -0.0373894 0.047350574 0.054657757
-0.05048971 -0.05130647 0.0036360319 0.07194875 -0.014591925 0.0100365095 0.06435063 0.04872349
0.03350443 -0.010824356 0.037364278 -0.080176786 0.008807475 0.011513651 -0.0071682213 0.07575185
-0.078022726 -0.044696257 0.0659056 -0.009128232 0.007261728 0.008373245 0.06736791 0.0038122921
-0.011753176 -0.022256754 -0.013091094 -0.051152863 0.014644508 8.6449225e-05 -0.050338246 -0.020608462
-0.015044747 0.033068668 -0.050204787 0.08020752 -0.075109035 0.08055083 -3.8300685e-05 0.017564029
0.013809686 -0.06802135 -0.07253752 0.0009617912 -0.004417922 -0.024402143 -0.023059133 -0.047488756
0.02251985 -0.06295298 -0.04485972 0.047996473 0.038787983 -0.028852757 -0.07885813 0.028032525
0.06407847 -0.02878257 0.070056304 -0.029730028 0.049355984 0.024092022 -0.063023776 0.008553876
-0.031271767 -0.018686607 0.0042407284 -0.05658085 0.025619894 0.051187187 -0.009476242 0.03452027
-0.0733358 0.010207586 -0.032054573 0.0018131001 -0.023949936 -0.04290643 -0.016305719 -0.075179264
-0.024464535 -0.025524901 0.080267146 -0.029768549 -1.2323012e-10 -0.009109102 -0.060352426 0.008935551
-0.05480967 0.017746164 -0.020200284 0.023790577 0.04633792 0.058342647 0.07711691 -0.0037204095
-0.08265804 -0.012567971 -0.07976294 0.0012463855 -0.07300872 -0.0011263138 0.06433154 9.2625907e-10
2.4936833e-10 0.075698316 -0.029294921 -0.07562194 0.03291557 0.048741248 -1.0058378e-07 -0.060746856
0.0038185436 0.010849891 -0.050246358 -0.02483577 7.458994e-11 0.039420966 -3.8869873e-11 0.077672504
0.07692907 0.0064450423 -0.041411676 -0.028100448 -0.007243042 1.0528868e-06 -0.041742753 -0.07837907
-0.010170854 -0.05365831 0.013143537 -0.033052165 -0.0103818225 0.022123942 0.0033291306 -1.3790387e-10
0.036945283 -0.0519669 0.0071086856 -5.127686e-08 -0.07877986 0.00987252 -0.047775295 -0.006830221
-0.02668865 -0.07688904 0.045192044 0.039335117 0.00011145592 -0.045531616 0.07225251 -0.015489506
-0.049807787 -0.054470006 0.0004775188 -0.037711408 -0.0005383274 -0.080503695 -0.007176316 -0.07663974
-0.06887256 -0.074006885 -0.060051482 0.0806819 -0.022864308 -0.06047 0.088823244 0.0027921926
-0.07321655 -0.06453773 0.0077647544 -0.070598006 0.029617853 -0.08052366 -0.08288045 0.038807236

gnn.conv1d_params2.bias f4 [32]
00000000: eca4 873c 4ad3 603b ff60 0ebd 67b6 803c
00000010: b24e 60bd 40b6 c3bd b58a 15bd a381 de3c
00000020: 7266 c5bd 3d51 cc3d d76d 0f3d 80ec 5ebd
00000030: 6bfa c43b 8531 1abd f331 b83d ae3e 94bd
00000040: 9d00 c33d e3cf 18bd ae48 c53d e262 84bd
00000050: 83cc bfbd e6b8 4fbd fc23 34bc 4480 18bd
00000060: 79e6 d0bd 7dfd aebd 597b cb3d 219c d4bd
00000070: 6ec7 893c d347 91bd c83d e23d 1077 9abd
0.016558133 0.0034305626 -0.03476047 0.015711976 -0.05476255 -0.09556246 -0.036509234 0.027161425
-0.096386805 0.099764325 0.03501686 -0.054424763 0.0060112975 -0.03764488 0.08993902 -0.07238518
0.09521601 -0.03730763 0.09633003 -0.06464173 -0.093651794 -0.050713442 -0.0109949075 -0.0372317
-0.10200209 -0.08544443 0.09935636 -0.10381342 0.016818728 -0.070937775 0.1104694 -0.075422406

mlp.h1_weights.weight f4 [128, 96]
00000000: 7b45 6ebb 9028 b83b d7ac f9bc 7774 2f3d
00000010: ea81 8ebd 51af d2bb 648f c6bc 5382 f830
00000020: c4dc 65b4 5fb4 afbc 34a0 b63c 93fd 163c
00000030: 2069 4db0 abd0 133d 08cb 043c 23fa 163d
00000040: a353 733d 5caf b1bc e54a 593d 7bcc 9ebd
00000050: 9927 20bd e61e 85bc a624 013d edde 833d
00000060: bd2a a13c 6bcd 34bd 2617 b43d f0d2 d0bd
00000070: 657d f93d b579 b4bd b3a1 06be 5493 053a
00000080: 90ad d63d bb7f 053e 6e40 b8bd f6c9 96bc
00000090: 9faa af3d 2d36 97bd 3e8c fbbd 0f8d 9f3d
000000a0: 53a7 36bc 2c46 efaf 2965 90bc e0f7 bebd
000000b0: e4b4 20bd a380 853d afbe c7bc f545 7d3d
000000c0: 74a7 bc3d 3b8e fc3c 8811 ec3d bc99 c5bd
000000d0: 5edb 0b3d 1ac2 9e3d 04c4 943c 5be6 d6bd
000000e0: 4a35 babc a11b da3a ff09 c2bd 4bac b33a
000000f0: 7c3f ddbd 922e a3bd 5101 d33d 48c7 d2bc
00000100: bbea a7bd d962 36bd fcda 7bbd 8120 213c
00000110: c144 86ba ecc6 35bd 1cab 853c cee8 32bd
00000120: fcd4 c73c 8e5a a83a 37f9 b7bc 8a7e fcbd
00000130: f645 ef3d ac75 b1bd f670 a23d 8295 2bbc
00000140: 7c50 7c3b 2c7c 5fbd 7683 0bbd 6a50 ee3b
00000150: 5fc7 083a 1a7d 55bd bcea 8ebd 2fad e6bd
00000160: bd11 e4bc c868 062f 5d56 89bd 7ca9 80bd
00000170: 04a5 093e 84f1 393d e5ee bfba dd7b bf3d
00000180: 3199 a43d c013 40bc 85c0 adbd 438f 5ebd
00000190: 62b6 0fbd 14fd 34b9 a481 23bd dea3 48bd
000001a0: cee4 aa3b 09da a83d 7658 48bd 4890 feba
000001b0: ee72 b7bd 4b01 fe3c 1ffc d3bd b645 29bd
000001c0: fa68 f33d 9936 a6bd afdd d73c 0b33 ff3c
000001d0: ef70 823c 982f be3d d703 94bd 5bd0 03be
000001e0: 3b93 cc3d d6bb c6ba 6b29 353c cf80 05be
000001f0: 3cf4 ef3d f5ad 57bc 992c a5bd 95eb c8bc
00000200: f101 87bd 659c 313d 6e56 44bc 5e46 6b3b
00000210: 6299 47bd 26fa b73d e635 b5bd 5b52 b1bb
00000220: 0a18 c8bd 62a6 f13d 342f b23d d879 ce3c
00000230: 0d7f 1bbc e487 0bbb 7502 e13d c66e 8ebc
00000240: e492 ee3d 1a7d 5fbc 56d8 82bd 967d bfbd
00000250: ee9c 843d eabb 00be 25a5 79bd 31e8 41bc
00000260: cec0 c73d abc5 cf3c ab39 f6ba 03ee 32bc
00000270: 2455 dfbd aab9 71bd acd0 d73d 77d3 9a3d
00000280: 172e acbc fea2 21bc df8c 0f3d 523a 36bd
00000290: 4522 d83d c8c8 da3d 51ad dc3d 1169 253d
000002a0: d572 0f3d ed02 2fbd 805b a0bd b06b d53d
000002b0: 5a0b ebbd 9cb9 4bbd f513 b5bb fcc4 553d
000002c0: 4a0d 8e3d 6c51 08be 34f0 04bd 12d1 21bc
000002d0: 9c86 ebbd 1fd5 953c de17 eebc cabf ecaf
000002e0: fcf3 b33c 74a5 483d 0eaf 3c3d 0b6a 4aba
000002f0: b420 ac3d ce26 b13d 1447 2ebb 098a e1bd
00000300: eec4 c1bd 8374 9bbd d112 f13d abb5 303b
00000310: 6d69 30bd 590d aabd 756b 683d 279e a33b
00000320: fbee bebd 0aba 5b3c 0e6b b13d df35 10bc
00000330: 7232 9334 4658 00be 5805 bf3d 8dfe bebc
00000340: 6547 973c 7858 0b3e 9731 14be 51c8 84bc
00000350: 3544 f53c 4e54 033e 05c7 dbbd c11e cf3d
00000360: 8ef5 043e d2e5 ca3c 2692 0dbc 0e25 b4bd
00000370: fab4 d53d fff7 84bd 69f1 db3d 6e2b 513d
00000380: 41dc c63d 8aab f43d 068f 82bd 6ec6 91bd
00000390: b7f8 9c3d 2c9c 50bd 6a2d f33d 7914 14bc
000003a0: e52c 48bc 9472 c03c 7b45 bd3d 8d9c 0cbd
000003b0: 9cc0 86bd 62eb 04be 2f78 c13d f433 8f3d
000003c0: bc6c 413d c237 b63d 09c4 88bd e618 dabd
000003d0: fad6 033d 334d fd3d 8bc0 0b3e f1aa e73d
000003e0: 4f08 e33d a10e d0bc c2dd 773c 989b 55bc
000003f0: 3619 09be edea 023e 1274 aebd 5305 0c3d
-0.0036357332 0.00562007 -0.030477924 0.04283568 -0.06958373 -0.0064295908 -0.024238296 1.8081415e-09
-2.1407601e-07 -0.021448312 0.022293188 0.00921573 -7.4727957e-10 0.036087673 0.008105047 0.036859643
0.059405934 -0.021690063 0.05304994 -0.07753845 -0.039100263 -0.016250085 0.03152909 0.06439004
0.0196737 -0.044141214 0.08793478 -0.10196483 0.1218212 -0.08812276 -0.13147621 0.0005095501
0.10482323 0.13037007 -0.08996664 -0.01840685 0.08577465 -0.0738338 -0.122826084 0.07790577
-0.011148292 -4.3523707e-10 -0.017626362 -0.09324622 -0.03923501 0.06518676 -0.024382917 0.061834294
0.09211627 0.03082954 0.11526781 -0.09648463 0.03414475 0.07751866 0.018159874 -0.104931556
-0.022730488 0.0016640314 -0.09474563 0.0013707964 -0.10803124 -0.07967867 0.103029855 -0.02572979
-0.08199068 -0.044527862 -0.061488137 0.00983441 -0.0010243879 -0.04437916 0.016316943 -0.04367905
0.024393551 0.001284437 -0.022457702 -0.12328823 0.11683266 -0.08665022 0.07931702 -0.010472657
0.003850012 -0.05456178 -0.034060918 0.0072727697 0.0005217697 -0.05212126 -0.06978366 -0.11263501
-0.02784049 1.2224455e-10 -0.067059256 -0.062823266 0.13441855 0.045396343 -0.001464334 0.09349797
0.080370314 -0.011723459 -0.08483986 -0.054335844 -0.035086043 -0.00017260417 -0.039918557 -0.0489844
0.005215264 0.08244712 -0.048912488 -0.0019421661 -0.08957468 0.031006476 -0.10350823 -0.041326247
0.11885257 -0.081158824 0.026350824 0.031152269 0.015922992 0.092864215 -0.07227295 -0.1287245
0.099890195 -0.0015162181 0.011057238 -0.13037418 0.11716506 -0.013164033 -0.08065147 -0.024526397
-0.06592167 0.04336204 -0.011983497 0.0035900096 -0.04873026 0.08983259 -0.08848171 -0.005411429
-0.0977021 0.11799313 0.087004095 0.025204584 -0.0094907405 -0.0021290714 0.10986797 -0.017386805
0.11649111 -0.013640666 -0.06388919 -0.093501255 0.064752445 -0.12571684 -0.06094851 -0.011835144
0.097535715 0.02536281 -0.0018785497 -0.010921004 -0.10904911 -0.059014954 0.10537848 0.07559865
-0.021018071 -0.0098655205 0.035046455 -0.044489212 0.105534114 0.10682827 0.10775245 0.040383402
0.03502162 -0.0427274 -0.07829952 0.104209304 -0.114767745 -0.049737558 -0.0055260607 0.052189812
0.069361284 -0.1331231 -0.032455638 -0.009876506 -0.11500284 0.0182901 -0.029064115 -4.3064424e-10
0.021966927 0.048985913 0.046065383 -0.000772149 0.08404675 0.086499795 -0.0026592659 -0.11012656
-0.094613895 -0.07590582 0.11771167 0.0026963751 -0.04306929 -0.08303327 0.056743104 0.0049932185
-0.09322926 0.013411054 0.08662997 -0.008801906 2.7417587e-07 -0.12533674 0.09327191 -0.023314739
0.01846666 0.13607967 -0.14472042 -0.0162088 0.02993975 0.12825128 -0.10731319 0.10113288
0.12984297 0.02476779 -0.0086408015 -0.0879613 0.10434909 -0.06492614 0.10739405 0.05106681
0.09709979 0.11946781 -0.06374936 -0.071179256 0.07664626 -0.050930187 0.118738964 -0.009038084
-0.012217735 0.023492135 0.09241768 -0.034328986 -0.06579706 -0.12980416 0.09446751 0.06992331
0.047222838 0.08897354 -0.06678016 -0.1064928 0.03218744 0.1236824 0.13647668 0.11311901
0.11085569 -0.0253976 0.015128555 -0.013037585 -0.13388523 0.1278493 -0.085182324 0.034184765

mlp.h1_weights.bias f4 [128]
00000000: a40c fe3a f60b 75bb 5102 9aba c511 573b
00000010: 85bb 5d3a 0000 0000 e5d0 883b 7424 463a
00000020: 199a be3b f3a5 7bbb 0000 0000 e74e 013b
00000030: 84df 1639 70d1 123c efb1 cabb 1c10 013b
00000040: b324 513c 87e9 aebb d442 6a3c 6e00 9d3c
00000050: 2eb2 03bb 718f 743c edd8 9c3a 737f 393c
00000060: 0dad 2fbb dc05 863c c454 a738 4443 ab3b
00000070: ce31 27ba 9465 453c b2cb 8c3a 5445 623b
00000080: e8fb eb3b ee89 203b 0000 0000 01fb 77bb
00000090: 1856 01bc df81 7a3c 3d13 cb3b 83ec 65bc
000000a0: 7bb0 40bc 0000 0000 ef86 a33a 1e32 63ba
000000b0: 3768 46bb 2892 8a3a 8a64 d5ba 69b0 b1b9
000000c0: 1196 7cbb ae50 9abb 0000 0000 e0e8 08ba
000000d0: 0000 0000 2483 2b3c 7a20 73ba 8685 09bb
000000e0: a1bb 2f3c c55c f839 ab33 0d3c 28d6 59bb
000000f0: 1abb 8abb 0000 0000 0000 0000 1ed2 333b
00000100: 96df 69bb 2ee5 82bc f1d9 6abb acda 843b
00000110: 0000 0000 618c 203c ce66 18bc 1649 293b
00000120: 14ae ef3a 9500 76bb 0000 0000 3615 a23a
00000130: e42d 473c 73cc 8a3b 4c24 873b f6b6 97b9
00000140: 0000 0000 b4e7 183b 8724 e53a 8333 ab3a
00000150: a1af c839 a7c2 103c ef29 6bbc 0000 0000
00000160: 7e1a 0a38 5444 933b 0000 0000 19ee 903a
00000170: 02f7 1c3c 531d 87bc 56d3 9aba 1e5e 13bc
00000180: a5c9 c4ba fd46 123b 58fe 1c3a 19e2 0cbb
00000190: 336f c4ba 55a8 99bc dfaa 10bc 79ec 59bb
000001a0: 707d 5bba 296d 883b 1c7f a63b 84df 303c
000001b0: 18f3 2d3b fd15 443c 5d4b dc3c 3c3c 6aba
000001c0: 1a16 d83a d343 9db9 5166 603a 3370 9aba
000001d0: 9754 2a3b 92a1 ba3b c761 6f3b 2d33 913c
000001e0: 932f 0dbc 0000 0000 f54a 69ba 330e 7e3b
000001f0: a0b8 7b3b ee9f bab8 726e 113c b7d5 ecbb
0.0019382429 -0.0037391162 -0.0011749958 0.0032816988 0.00084584235 0.0 0.004175293 0.00075585325
0.0058167097 -0.0038398474 0.0 0.0019730867 0.00014388381 0.008961067 -0.006185762 0.001969344
0.012765097 -0.005337897 0.01429816 0.019165244 -0.0020095217 0.014926777 0.0011966504 0.01132189
-0.0026806027 0.016360216 7.9789694e-05 0.0052265245 -0.0006377966 0.012048144 0.0010741858 0.0034526186
0.0072016604 0.0024496275 0.0 -0.003783882 -0.0078940615 0.015289753 0.0061973617 -0.01403344
-0.011760826 0.0 0.0012476126 -0.0008666831 -0.003027452 0.0010572122 -0.0016280573 -0.00033891507
-0.0038541595 -0.004709325 0.0 -0.00052226894 0.0 0.010468278 -0.0009274554 -0.0020984127
0.010725887 0.00047371365 0.008618276 -0.003323922 -0.00423373 0.0 0.0 0.0027438472
-0.0035686246 -0.015978422 -0.003583547 0.004054388 0.0 0.009799094 -0.009301854 0.0025830916
0.0018286132 -0.0037536968 0.0 0.001236594 0.012156937 0.004235798 0.0041242 -0.0002893728
0.0 0.0023331465 0.00174822 0.0013061616 0.00038277826 0.008835471 -0.0143532595 0.0
3.2926437e-05 0.0044942293 0.0 0.0011057287 0.009580376 -0.016493475 -0.0011812251 -0.008994607
-0.0015013708 0.0022320144 0.0005988828 -0.002149707 -0.0014986753 -0.018757025 -0.008829801 -0.003325252
-0.00083728787 0.0041634035 0.0050810706 0.010795478 0.00265426 0.011968133 0.026891405 -0.0008935367
0.0016486079 -0.00029995907 0.0008560168 -0.0011782706 0.002599036 0.00569553 0.0036526786 0.017724598
-0.0086173 0.0 -0.0008899414 0.0038765788 0.0038409606 -8.8989604e-05 0.00887643 -0.007227625
