data/ISELTA-ESG-full_edges_model.pth (torch, 66751 bytes, 15 tensors)

gnn.conv_params.0.weight f4 [32, 11]
00000000: eb5f 9e3e cf5e 623e 0cbc 72be 6b1c 13be
00000010: 5062 59bd 7565 c83d 3e20 1c3d c57d 8138
00000020: 4af5 92bd 30c3 39bd 5395 8d3e 97e8 72be
00000030: 47b8 babc dd4d 953d 286a 273d 2e49 353d
00000040: 79ce 91bd 0ce5 b3bd 47f7 1e3e 124c f8b4
00000050: 69b6 103e ac6f 88be 6cc0 96be a05b bbbd
00000060: abc5 883e fe75 4d3e 7d52 4f3e ea83 78be
00000070: 7371 f03d 89fa f2bd f688 103e 7d77 6bbd
00000080: 63a4 9f3e b730 eabd 4540 09be 5e49 6ebd
00000090: 81f4 6e3a 5bbb b439 4bf0 1c3e 93ef 193e
000000a0: 642e 77bc 7a82 e23c 1f27 c93d 0f71 843d
000000b0: 3873 e4bd 777e 38be 9d63 8e3e f63e c03e
000000c0: 4005 32be d1fe 4a3e 8869 d9bd e9ce 833a
000000d0: ef49 6abc ac0c cfbb bdba 3d3d b0aa c8bd
000000e0: 26f5 b63c d30d 6e3d 4bb8 2b3e b25a e73d
000000f0: 7cee 3fbd aef8 83be 47f6 003a 2734 7eba
00000100: a628 533e 1c16 613e f702 4e3e 75af 653e
00000110: 6ea3 8bbc c859 7ebb cf76 2cbe fecd 61b9
00000120: 270f 9f3c 9316 7ebe e4f4 d93d ae10 563e
00000130: 442d 80be d1a9 503d 612f c83d ab11 6f3e
00000140: 88b7 023c 7eb7 5abd a924 0c3e 44d4 27be
00000150: 3afc 97bd eb00 db3b 319d 07be d56f 813e
00000160: bf6e 8c3d 9310 3dbd 3388 6bbe cce7 4bbe
00000170: b26d a13a d2d4 bd32 3b92 6c39 3517 51be
00000180: d680 553d ab1e 3ebe 6c76 6b3d 6aef b33b
00000190: 6d64 cfbd ab1f 65bd 05aa 9ebb ca13 c1bb
000001a0: 64a7 aabd a20b 64be 70b4 0abe 4f52 283d
000001b0: b144 633e b20f 71be 65a1 efbd dca6 35bd
000001c0: de8a 24bd 7a5a e3bc 8eba 053d 8cce 103e
000001d0: d704 e83a 100c 0abe 4a43 0bbe 3fd5 223d
000001e0: 22b9 1c3d d9fe 8abe 329a 32bd e838 b83e
000001f0: 2997 cd3e 8a22 85bd 6d12 183e 98e3 e5bd
00000200: 6bc6 1dbe ebb7 2abc 5ce2 b5bb 0ebd 1b3d
00000210: 9c09 0fbe f119 3cbb d204 0dbe 7f15 783e
00000220: cf55 1dbe ae61 5bbe f93b 413d 620e 1cb3
00000230: 0a26 b0bb 2aea a33d 8d0f 313e 3c46 5c3e
00000240: cb7f 113c 582e 963b e3bb f43d 326c 823e
00000250: ac75 03bb 0659 5dbb dbf3 e9b3 d684 ab3a
00000260: 2fcd 4dbe 3aa4 ae3e 95b9 b13a 6605 6d3d
00000270: ee4c 653e d7b0 883d 4ca3 08bd 9ed8 4d3e
00000280: 2e66 503c 33bc 47bd 601d 503e 7e6a 7bbe
00000290: 03ad 1e3e 158d 51be 8e45 413e c96e 57be
000002a0: 00bc b9bc 63c2 2c3e 25e0 453c a5ab 80be
000002b0: 1d15 68be 3b6c 2dbe cdb2 333e 2db3 a0be
000002c0: 13bb 8bbd 3f8b 03be c3b4 503e b55e 2e3e
000002d0: eef4 51bd b437 37bd 4e13 cfbd 0b77 98bd
000002e0: 3ccc 7ebd 11cb 41bd 0119 703e 0431 4dbe
000002f0: e52a 093d 28ef 81be a7d7 24bd c8a3 9ebd
00000300: d7c2 bb3d b6d0 fc3c 87d9 dcbc 46d6 4fbe
00000310: b151 f7bd a0c5 82be 85b8 413c f772 d93d
00000320: fb62 2cbb d262 c23d e540 08bd accc 5f3c
00000330: b516 d1bd adcb cabc 99d4 163e 5aee 553e
00000340: d804 323d ecfe 81bb feeb 94bb 9e19 50be
00000350: 9f61 1cba 7e65 19bd fefd b63d eecf 42be
00000360: 98e4 393d fd64 6a3a 8ce7 7ebe 8a8b 9abd
00000370: 591b 0a3e 8a8f 1bbc 703c c83d ccff 593e
00000380: fabe 10be 7c53 073d 6d8c f93d 560b 9fbd
00000390: 4f0b fcbd 6e78 043e f5eb a0bd de58 663b
000003a0: 9d2a 7ebc f15b 6bbe 7131 a73b 7167 823b
000003b0: 6750 003e 021b ffbb 80ce 6c3e d051 36be
000003c0: c8e7 943d a2c8 6e3e 4311 7e3d 9f11 a039
000003d0: 6b9b 9dbc 14dd 4c3a 7d6e 763e 8b34 56bc
000003e0: 1101 1d3e 603e 28be b9ba f33c 3f7d d3bd
000003f0: 6c23 3cbe edbb 633e 6a2b 953a dbeb 3d3c
0.30932555 0.22106479 -0.23704547 -0.1436631 -0.053072274 0.097849764 0.038116686 6.174626e-05
-0.071756914 -0.04535216 0.27652988 -0.23721538 -0.022792948 0.07290242 0.040872723 0.044259243
-0.0711946 -0.087839216 0.15524016 -4.6248948e-07 0.14132084 -0.266477 -0.2944368 -0.091483355
0.2671331 0.20064542 0.2024631 -0.24269071 0.11740389 -0.11864192 0.14114746 -0.057487
0.31180105 -0.11435073 -0.13403423 -0.058175437 0.00091154134 0.00034471866 0.1532604 0.15032797
-0.015086744 0.027650107 0.09821915 0.06466877 -0.11154789 -0.18016993 0.27810374 0.37548035
-0.17384815 0.19823767 -0.106158316 0.0010056171 -0.014299854 -0.0063186493 0.046320666 -0.09798181
0.022333693 0.058118653 0.16769521 0.11296596 -0.046858296 -0.25775665 0.00049195107 -0.00096971024
0.20620975 0.2198109 0.20118318 0.22430213 -0.017045703 -0.0038810838 -0.16842197 -0.0002153441
0.019416405 -0.24813299 0.10642412 0.209048 -0.25034535 0.0509432 0.09774662 0.23346584
0.007978328 -0.053397648 0.1368586 -0.16389567 -0.07421155 0.006683459 -0.13243558 0.25280634
0.06857061 -0.046158385 -0.23001175 -0.19912642 0.0012316017 2.2099275e-08 0.00022561189 -0.20419009
0.05212482 -0.18566386 0.057485983 0.005491187 -0.101265766 -0.055938404 -0.0048420453 -0.0058922516
-0.083327085 -0.22270063 -0.13545394 0.04109412 0.22194172 -0.23541144 -0.117007054 -0.044348583
-0.040171497 -0.027753104 0.032648616 0.14141291 0.0017701638 -0.13481164 -0.13599887 0.03975415
0.038262494 -0.27147558 -0.043604083 0.35980916 0.4015439 -0.065007284 0.14850779 -0.11225051
-0.15407722 -0.010419826 -0.005550666 0.038022093 -0.1396851 -0.0028701986 -0.1377137 0.2422695
-0.15364765 -0.2142398 0.047176335 -3.633466e-08 -0.0053756284 0.080036476 0.17291088 0.21511167
0.008880566 0.0045831613 0.11949899 0.2547317 -0.0020059152 -0.0033774986 -1.0894265e-07 0.0013085853
-0.20097803 0.3410967 0.0013559336 0.057866476 0.22392628 0.066743545 -0.033358857 0.20102164
0.012719674 -0.048763465 0.20323706 -0.24552342 0.15495686 -0.20463975 0.1887419 -0.21038355
-0.022672653 0.16871028 0.012077366 -0.25130954 -0.22664304 -0.16935818 0.17548676 -0.313867
-0.06822791 -0.12846087 0.20381455 0.17028315 -0.051258974 -0.044730857 -0.10111104 -0.07444581
-0.06220649 -0.0473128 0.23447038 -0.20038229 0.033488173 -0.25377774 -0.040244725 -0.077460825
0.09168022 0.03086124 -0.026959194 -0.20296583 -0.12076128 -0.255414 0.011823778 0.10617631
-0.0026304114 0.09491505 -0.033265013 0.013659637 -0.10209409 -0.024755323 0.14729537 0.20891705
0.04346165 -0.0039671566 -0.004544734 -0.20322272 -0.00059654744 -0.037450306 0.08935164 -0.19024631
0.04538402 0.000894144 -0.24893016 -0.07546146 0.13486995 -0.009494672 0.097771525 0.21288985
-0.14135352 0.0330386 0.12184987 -0.07765834 -0.123068444 0.12936565 -0.07857505 0.0035148184
-0.0155130895 -0.22984292 0.0051023294 0.0039796163 0.12530671 -0.007785202 0.23125648 -0.17804646
0.07270771 0.23318723 0.06202818 0.00030530707 -0.019239148 0.00078149256 0.24065585 -0.013074051
0.15332438 -0.16430044 0.029752122 -0.10326623 -0.18372887 0.22239657 0.0011380736 0.011591877

gnn.conv_params.0.bias f4 [32]
00000000: f8a4 4e3d 12f8 d7bc 806e 1fbc f77b 6c3a
00000010: b3a1 dfbc c9ee 6cba 4361 2abb 6c67 b63c
00000020: 8058 253b 1fb4 a7bc ea47 09bc c285 67bd
00000030: 40f3 35bb 70a7 253c 5512 733b d161 e1bc
00000040: 62db bbbb 4c64 80b9 bd9a e53a 8d54 86bb
00000050: 3190 453a 18f1 6c3a 9e9c 9dba 0c03 003d
00000060: be59 a7ba d15f 5abb 8436 4cbc c073 143b
00000070: d1fa b93b 0111 a13b 6b2a 9fba 8236 c5bc
0.050450295 -0.026363406 -0.009730935 0.0009021158 -0.027298784 -0.00090382673 -0.0025997914 0.022266112
0.0025229752 -0.02047163 -0.008378962 -0.056524046 -0.0027763397 0.010110721 0.0037089784 -0.027512463
-0.0057329396 -0.0002448879 0.0017517429 -0.0040994347 0.000753644 0.00090386113 -0.0012024825 0.031252906
-0.0012767834 -0.0033321271 -0.012464169 0.0022652 0.0056756516 0.004915357 -0.0012143379 -0.024073843

gnn.conv_params.1.weight f4 [32, 32]
00000000: 5f49 e73d 5e0e 153e 0988 213d 76a0 443e
00000010: 5979 0e3e 9f24 3a3b 7c54 9c3d 69cd 1ebd
00000020: 9227 963d 8fb0 d23d bd4d 063e 4515 1dbe
00000030: d297 173e 66bd 0dbb 95a5 1b3e 2823 323e
00000040: af30 1abc 4f07 c6bd c3b3 bbbc 0cd1 aa3d
00000050: 2b4c 033e 71f1 05be 724a 44be acba 33be
00000060: 0673 7a3d 5d8e f43d 0563 373e 04ca 96bc
00000070: 0922 563d 7718 033c 90b4 a9bc 40cc 25be
00000080: fec3 033c 7d08 a3bd 18dd 613e 9bb8 4b3e
00000090: 6451 813e 5cf5 443e 9017 7cbc b487 94bc
000000a0: 12f5 1b3e ca6a 5abe 4e0f 013e d3a5 8a3e
000000b0: a08b adbb 5dad 533d 993f 52be 2c1f 6a3e
000000c0: 0967 acbc 6896 4fbe 0360 24be c7c7 4dbd
000000d0: 4dbb 70bb cb05 0dbe 1e9c dcbd 9abd 203e
000000e0: d79f a6bd ed8e 4abe 191c f53d cfec 593c
000000f0: fc87 ee3c 7fd6 39be fccf 57be 2ef3 1b3c
00000100: 3291 56bb b449 2cbe bc47 fdbd d60b 663c
00000110: 48d2 b9bc 41b7 053c e076 393d 6205 62be
00000120: 3af9 52bc 876f 2d3e 9657 cdbd dc3c 09bd
00000130: 424b 273d 7fc5 00be 9665 033e 2c75 f93d
00000140: e359 4e3e eb67 313e a217 f23a 0ca9 533e
00000150: 237d d13c 7fc0 f5bd f7ee b9bd 53d6 a8bd
00000160: c6ba 85bc 9850 60be f8c1 85bd e8d8 62be
00000170: 1bf5 a13d 53cf 58be 24b2 213c 19d4 adbd
00000180: ac1a d1bc 5a0c 103e b441 033d f0f8 6fbe
00000190: e764 3ebe ccd2 e9bd fd2b a03d c778 18bd
000001a0: bd0d d0bc c11e 3a3e 3a6e fbbd 6fc1 42be
000001b0: 6f3c 2c3e 6ba7 363e c21d 2e3e d547 633e
000001c0: bee8 07be 85ac 09bd 4e7c 7b3e b31c 273e
000001d0: 7d38 debd ea5d 2fbe 6a10 053e bd01 ed3d
000001e0: 5962 4cbe 6f04 12be f09f 223e c871 61be
000001f0: 6a76 613c 3fab 073e c908 f73c 1085 ac3c
00000200: 251d 123e 3856 b93d ce8d 2ebd 36d8 cabd
00000210: 7584 48be 69fe e93d e7ff ed3d 3151 253e
00000220: f138 973d ed82 21be 1cc0 ad3d 2697 28be
00000230: 630a b5bd 0560 3a3e 509d 2a3c bda6 7dbb
00000240: d9e9 bb3d c6d1 4ebe d114 9c3d 6c8c e6bd
00000250: 0cff 023e a77c 5e3e aba3 573c 2d71 2fbe
00000260: e228 e2bc 3b26 3fbe f527 a83d 7d53 fd3d
00000270: ddaa 893d 96c9 7ebe 19c9 f2bd e3d5 d4bc
00000280: 7d17 ff3d 7301 93bb 72d2 a43d bc2c 03bc
00000290: 4d0d b23c a8a5 4ebd e9cd d93d f58c 47be
000002a0: ae83 c6bb 92bd 453e df5f 4dbe 9d17 ef3d
000002b0: 1fbf 3fbe 4bd4 1e3e 13ef 33be 49fa 1f3e
000002c0: 8159 213e f248 3abe a277 5ebe ca98 883d
000002d0: de30 8fbd a2b3 cc3d 9334 cebd 90cb af3c
000002e0: 38a4 483c 439b 9dbd 4212 403c 27fb ee3d
000002f0: 3b9e 183d 69c1 e3bd 5fca 61be ed35 483d
00000300: 86aa 3b3e 074b 003e d4cb 55be f878 19bd
00000310: e6c9 53be cb05 46bc 663f 0e3e 2e5a 3bbe
00000320: 48cf 2abc fc2c 29ba d16f 7b3d ffdf 1abe
00000330: a477 aebd 27b8 3a3e bc97 ddbd 4891 f2bd
00000340: 890b 8bbd 9a86 dd3d 0796 00be feea 4f3e
00000350: d27b 1dbd e391 da3d 5e74 403e 165a 68be
00000360: 76a7 3a3e ba09 4ebd 6579 1b3e 3c2b 813d
00000370: 4c01 39bd 3020 febd 8747 0a3d 1cc9 053e
00000380: 80f8 d43d 0aed 083e 05e8 fc3d 7b00 4fbe
00000390: 5c06 383e a5ff be3c d083 f3bd ba84 1dbe
000003a0: 7720 5d3e 4dfb b0bd 8a5f ac3c 05cb a4bd
000003b0: e70b 5abe 8648 c83d 0185 13be 5790 34bc
000003c0: 8bbd 443e 132a 303e eb3d ed3c 82ee 8ebd
000003d0: de7c 41be cf8d a1bd 77f4 76bd 8cba 563e
000003e0: 51a2 27bd c20b 58be a94f 82bc c46d 24be
000003f0: 5038 88bb 7728 d5bd 0f84 163e b9d8 8abd
0.11293291 0.14556262 0.039436374 0.19201836 0.13913478 0.0028403176 0.076333016 -0.038770113
0.07331766 0.10287582 0.13115592 -0.15340145 0.14804009 -0.0021627783 0.15199883 0.17396224
-0.009411021 -0.09669363 -0.022912866 0.08340654 0.12822025 -0.13080384 -0.19169024 -0.17551678
0.06114485 0.11941216 0.17908867 -0.018406875 0.052278552 0.008001438 -0.020715982 -0.16191196
0.008042334 -0.079606034 0.22056997 0.1989464 0.2525741 0.19234222 -0.015386477 -0.018131115
0.15230206 -0.213298 0.12603495 0.2707964 -0.0052961856 0.051679004 -0.20532073 0.22863454
-0.021045225 -0.20272219 -0.1605225 -0.05023935 -0.0036732734 -0.13771741 -0.107719645 0.15697327
-0.08135956 -0.19781084 0.1196825 0.0133010885 0.029117577 -0.1814823 -0.21075433 0.009518428
-0.0032740352 -0.1682499 -0.12367198 0.014040908 -0.022683278 0.008161367 0.045279384 -0.22072366
-0.012876803 0.16937076 -0.10026471 -0.033505306 0.040843256 -0.12575339 0.1283172 0.12180552
0.20151477 0.17324798 0.0018470178 0.20669955 0.025572365 -0.11999606 -0.09078782 -0.08244004
-0.016324412 -0.21905744 -0.06531137 -0.22153056 0.07908078 -0.21172838 0.009869132 -0.0848772
-0.025525413 0.14067212 0.03204508 -0.23434806 -0.18593179 -0.114171594 0.0782089 -0.037224557
-0.025397176 0.18175794 -0.122768834 -0.19019102 0.16819929 0.17837302 0.17003539 0.2219537
-0.13272378 -0.033611793 0.24559137 0.16319542 -0.10850618 -0.17125669 0.12994543 0.11572597
-0.19959392 -0.14259504 0.15881324 -0.2201606 0.013761142 0.13248919 0.030155556 0.021059543
0.1426893 0.09049648 -0.042615704 -0.0990452 -0.19581778 0.11425478 0.11621075 0.16144253
0.073839076 -0.157726 0.084839076 -0.16463909 -0.08839872 0.18200691 0.010413483 -0.003870412
0.09175462 -0.2019721 0.07621158 -0.11257252 0.12792605 0.21727239 0.01316158 -0.17133017
-0.027607385 -0.18666928 0.08210746 0.1236944 0.06722043 -0.24881586 -0.118547626 -0.025980895
0.12455652 -0.0044862567 0.08047952 -0.008006271 0.021734858 -0.05045095 0.10634977 -0.19487365
-0.006058178 0.19310597 -0.20056103 0.11674426 -0.1872525 0.15510671 -0.17571668 0.1562282
0.157568 -0.18191889 -0.21725324 0.06669767 -0.069917426 0.099952 -0.100686215 0.02145937
0.012246184 -0.076956294 0.011723103 0.11668997 0.037260275 -0.111208744 -0.22049855 0.048879553
0.18326768 0.1252862 -0.20878536 -0.03746888 -0.20682487 -0.012086342 0.13891372 -0.1829612
-0.010425396 -0.00064535416 0.061385933 -0.1512451 -0.085189134 0.18234311 -0.10819957 -0.118441164
-0.067893095 0.10816689 -0.12557231 0.20304486 -0.038448162 0.10672357 0.1879439 -0.22690615
0.18227944 -0.050302245 0.15183027 0.063070744 -0.045167252 -0.12408483 0.03375962 0.13064998
0.1039896 0.13371673 0.12348942 -0.20215027 0.17971176 0.02331526 -0.118903756 -0.15382662
0.21594416 -0.08641682 0.02104165 -0.080465354 -0.21293603 0.09779458 -0.14406206 -0.011020741
0.1921293 0.1720355 0.028960189 -0.069790855 -0.1889529 -0.07888376 -0.060291734 0.209696
-0.04092628 -0.21098235 -0.015907126 -0.16057497 -0.0041571036 -0.10408109 0.14698814 -0.06779618

gnn.conv_params.1.bias f4 [32]
00000000: b66b 753c 8ff0 29bd 2b85 dd3c dfe1 3c3d
00000010: 2302 4f3d ad07 3f3c d2a6 433d 748f d73a
00000020: ccbe 0a3d 0c06 4e3d 2f65 75bd a854 c9bc
00000030: 5635 10bc 009e fabc 5408 123d e369 02bc
00000040: e697 26bd 4cd2 143d 4394 54bc 5108 cbbc
00000050: d344 133d 46cd 3abd 1535 bf3a d686 88bb
00000060: be3f 4a3d 014f 38bd a7f4 513d 100f 033c
00000070: 513b 563c 87c4 293d 935b fa3c 0f59 6fbc
0.014979294 -0.04148918 0.027041038 0.046113845 0.050539147 0.011659545 0.047766514 0.0016445951
0.033873364 0.050298735 -0.05991095 -0.0245765 -0.008801779 -0.030592918 0.035652474 -0.007959816
-0.040672205 0.036333367 -0.0129748015 -0.024784239 0.035954308 -0.04560592 0.0014587963 -0.0041664643
0.049377196 -0.04499722 0.05125871 0.007999197 0.013075666 0.04144719 0.030561244 -0.014608636

gnn.conv_params.2.weight f4 [32, 32]
00000000: d3be ebbc d8f3 0bbe 075c 15be af94 c4bd
00000010: 582a 1abe 24a2 98bd 9225 5d3e c3a8 fcbb
00000020: 4c60 8b3b adf6 0a3d 53b9 cf3d 94c1 eabc
00000030: 5cda e5bd cad6 78bd 7cec 37be aec8 eb3d
00000040: ab20 ac3c fde9 1ebd d13e f5bd 6e92 55bc
00000050: 7800 f73b 71e8 14be b28a f53d 60b2 4dbe
00000060: 6e0d 0ebd 8ef8 5cbe 8726 333e 87ec 6bbe
00000070: f602 8f3d f7f8 0c3e 1e82 79bd ad4a 973c
00000080: ae19 65bc 4682 edbd 5318 56bd fad6 61bb
00000090: 0539 f2bd 9424 52be 1a4b 2bbe 5cf7 623e
000000a0: b479 923d 6d1b b4bd 73e9 8a3d a77f 16be
000000b0: 153f 0fbe 9335 57be 4fcb 573d a857 913d
000000c0: dab8 a43d 5630 4a3e 5cac a0bd f14a 4bbc
000000d0: 65de c03d 68e4 e53d f712 2f3e eb42 883c
000000e0: 5e1b e43d 09a8 c63c 68d5 38be eba8 af3d
000000f0: ec74 a43d aa85 5dbc 73a6 153e 6505 713c
00000100: d111 3d3e af8e 4f3c 8a4a 72bd d52c 40be
00000110: e96b 21be a00b c93c 95d0 153e 0633 a4bc
00000120: 7e09 27bd c0f1 89bd 43c6 913d 5b55 dcbc
00000130: 3f3c d53d d858 633d c6ae e3bd e2c3 23be
00000140: d843 d73c eff3 2e3d 16e3 cdbd 68bf 313e
00000150: 4626 b63c 2b40 1abd 3244 3c3d b78c 3bbe
00000160: bfbf 373e 4d00 723d d83b 9c3d 6fb4 98bd
00000170: c865 b739 61a8 9a3d 4260 85bd d14f d6bd
00000180: 5474 57be 5dd0 1e3d f625 a83c 5e36 c2bd
00000190: c60e 4fbe 3a3e 4e3e 7196 a63b 882b 0dbe
000001a0: 2e5e ccbd 3591 5ebe 02a0 a23d 86e6 52be
000001b0: cf28 8fbd a547 1ebe 5b2d 4cbe 073e 61bd
000001c0: abfd e13d 52b4 533e 734d fe3d 013f a63c
000001d0: 9178 87bd e865 9f3d d23d 653c c6da 30be
000001e0: 4957 42be ae86 9c3d 8591 09be 062a 58be
000001f0: bbb6 073e 8753 53bd 3dcb 50be 366f 57bd
00000200: ed4e 383e 0284 08be 91ee 443e e631 213d
00000210: 8fcb 14be cdd9 61bd 66c8 b23c d678 dd3d
00000220: 9602 533a 92cf f13d 1ac6 683d 779c ae3d
00000230: ff29 a1b9 e5b1 78bc 5dbb 0cbe be2b 52be
00000240: 7d1e d0bd 41c2 95bd c129 ac3c b74a 043e
00000250: e573 783c a807 a3bc 8888 1bbd 5f26 333e
00000260: a4c9 f03d a35c 25be f014 b33d 9137 02bd
00000270: 9e2f aebd b6e1 513d 768b b73d 5856 3e3e
00000280: 77d3 6d3a 0bf8 a63d f9d4 613c 2163 163e
00000290: 45d0 f8bd 4c45 47be d690 723c 58f0 cc3c
000002a0: db5b 503d 7417 d43d d561 a5bc ab16 10be
000002b0: afa2 3ebd f84e 533c 35c2 2abe 51d5 ce3c
000002c0: cc8f f43d fa97 d6bc 9400 863d 241b c73d
000002d0: e536 413e 128d 2c3c fb2d b9bc 524c 47bc
000002e0: bac5 8ebd 7415 253e 853c 9abc dd08 48be
000002f0: 2213 c9bd 337e 99bd 3d65 b83b bcb2 87ba
00000300: 4221 ef3d 035c ee3d 5db8 febc b9f8 063c
00000310: 9868 493e b77a cbbc dbb1 0b3e 6e5e 19be
00000320: 5ccd ba3c 659f 023e 6cdd 4ebe 7b80 11be
00000330: af6e c0bc e36f 23be 9f5e 6e3e d2b6 b33a
00000340: 6008 0e3d 1e78 63be c4a1 0bbe 1940 75bd
00000350: 53db b13c a63a 41be eab5 083d 8647 ce3d
00000360: 01f4 5cbe c846 2abe 9bce 193d efa9 913b
00000370: c763 ddbd bb77 153e 0cc2 19bc 58cb dc3d
00000380: 9336 29be 2487 a73c caa0 0abe d47d 75bc
00000390: 5a65 d53d 0dae 313d 8aea 48be 4d0f 9e3d
000003a0: dc25 1ebe 3bb9 c7bd 5545 cf3d ee75 d73d
000003b0: 834c ba3d 8c6c 193d 1a38 d5bb 69de d8bd
000003c0: 30af 25be 4df7 6cbd 01fe f9bd eb26 543e
000003d0: e09a b73c 7189 133d 61eb 903d 74af aa3d
000003e0: de7d 87bc 3aad 333d 11a9 31be a46d 533e
000003f0: 234d 243e c1a5 e13d e8d1 a23d f836 af3d
-0.028777516 -0.13667238 -0.14585887 -0.09598672 -0.15055215 -0.07452801 0.21596363 -0.0077105477
0.004253423 0.033926655 0.1014277 -0.028656758 -0.11223289 -0.060751714 -0.17961305 0.11512886
0.021011671 -0.038797367 -0.11974872 -0.0130354 0.0075378977 -0.14541794 0.11989345 -0.20087576
-0.034680776 -0.21579191 0.17495166 -0.23039447 0.06982987 0.13766848 -0.060915105 0.018468225
-0.013983173 -0.11597113 -0.05226929 -0.0034460411 -0.11827282 -0.20521766 -0.16727868 0.22164673
0.07152119 -0.087942936 0.06782808 -0.14697133 -0.13988908 -0.2101653 0.052684125 0.07096797
0.0804307 0.19745001 -0.07845375 -0.012408004 0.094174184 0.11225206 0.17097078 0.016633471
0.111380324 0.024250047 -0.18050158 0.085771404 0.080301136 -0.0135206375 0.14614277 0.014710759
0.18463828 0.012668296 -0.059153117 -0.18767102 -0.1576382 0.024541676 0.14630349 -0.020043861
-0.040780537 -0.06735563 0.071178935 -0.02689617 0.10411882 0.05550465 -0.1111732 -0.15992692
0.026277468 0.042713102 -0.10053079 0.17358172 0.022235047 -0.03765885 0.045963474 -0.18315397
0.17944239 0.059082318 0.07628602 -0.0745629 0.00034980313 0.07551647 -0.065125 -0.104644425
-0.2104047 0.03877293 0.020525914 -0.09483026 -0.2022048 0.20140925 0.005083852 -0.13786137
-0.09978901 -0.2173508 0.07940675 -0.2059575 -0.069902055 -0.15457018 -0.19939177 -0.054990795
0.110347115 0.20674255 0.12417116 0.020293714 -0.06614793 0.07783109 0.01399179 -0.17270955
-0.18978609 0.076428756 -0.13434418 -0.2110978 0.132533 -0.05159333 -0.20390029 -0.052596293
0.17998858 -0.13331607 0.19231631 0.039354227 -0.14530776 -0.05513935 0.021824073 0.10814063
0.00080493966 0.11807169 0.05682955 0.08525937 -0.00030739603 -0.015179132 -0.13743348 -0.20524499
-0.10162065 -0.073124416 0.021016004 0.12919126 0.01516435 -0.019901112 -0.037972003 0.17495106
0.1175721 -0.1614862 0.08744228 -0.031791274 -0.08505176 0.051240645 0.08962147 0.18587625
0.0009072343 0.08152779 0.013783687 0.14686252 -0.12149099 -0.19460028 0.014805039 0.025016949
0.05086885 0.10356036 -0.020188252 -0.14071147 -0.046541866 0.012897246 -0.16675647 0.025248202
0.119414896 -0.026195515 0.06543079 0.097219735 0.18868597 0.010531681 -0.022604933 -0.012164192
-0.06971307 0.16121465 -0.018827686 -0.19534631 -0.098181024 -0.07494774 0.005627303 -0.001035295
0.11676265 0.116386436 -0.03109377 0.008238011 0.19668806 -0.024838788 0.13642065 -0.14977428
0.022803001 0.12756117 -0.20201653 -0.14209168 -0.023490278 -0.1596065 0.23278283 0.0013711101
0.034675956 -0.2221379 -0.13635927 -0.05987558 0.021711027 -0.18870029 0.03337661 0.10072236
-0.21577455 -0.16628563 0.03755055 0.0044453065 -0.10810047 0.14596455 -0.009384643 0.10780972
-0.16524725 0.020450182 -0.13537899 -0.014983613 0.10419722 0.04337888 -0.1962072 0.07717762
-0.1544413 -0.09752127 0.10120646 0.1052054 0.09096625 0.037457034 -0.006506932 -0.10589296
-0.1618011 -0.057853032 -0.122066505 0.20717971 0.022412717 0.036019746 0.07076145 0.08334246
-0.01653951 0.043866374 -0.1734965 0.20647293 0.1604505 0.11017943 0.07950193 0.08555406

gnn.conv_params.2.bias f4 [32]
00000000: 64fd 283d d313 593d 2605 b6bc 8776 2fbd
00000010: 9fda 623c b58d 22bd fd56 303d 6fb0 e2bc
00000020: 7a46 5e3b 727e 053d 8036 413d 87a0 3bbd
00000030: ac4e 35bd 7096 953c 4d48 363d aae5 3cbd
00000040: 2256 263d 9b8d bf3b eb28 0bbd cebf 4e3d
00000050: 2621 dcbc 55fc 373d fe79 103c 0a59 c7bb
00000060: c528 833c 1c0f 863a 2d9e f43b 6e41 d03c
00000070: ef40 bcbc df63 153b 805a 8a3c c3bf 06bb
0.041257277 0.05299742 -0.022219252 -0.042837646 0.013846069 -0.039685924 0.04305171 -0.02767202
0.003391652 0.03259129 0.047171116 -0.045807388 -0.04426448 0.01826021 0.044502545 -0.046117462
0.040609486 0.005845738 -0.03397457 0.050475888 -0.026871275 0.044918377 0.008818148 -0.0060836123
0.016010651 0.0010227892 0.007465145 0.025421824 -0.022980182 0.0022795124 0.016888857 -0.0020561076

gnn.conv_params.3.weight f4 [1, 32]
00000000: b3b4 88bd a8f6 89be 34a5 dc3c 2a67 02bd
00000010: 059f 16be 86bf db3c 1a72 4f3e 16fc 9abe
00000020: 95b9 1a3e 32dd 9bbc 3089 9abc 6676 8d3e
00000030: 7a29 a93c 9221 c4bd 803d 0ebd 4b54 a9bc
00000040: ffdb 5bbe bf9d 44be 6748 c63d d91a 8bbe
00000050: a736 41bd d4a9 3b3e 72fb 22bd 9d85 1ebd
00000060: 079b 25bd c4f8 33bd 92ce 58be 298e 8dbe
00000070: 6369 2abc 4a30 ab3c 13ed 3e3e f95d 3cbb
-0.06675091 -0.26945996 0.026934244 -0.031836666 -0.14709099 0.026824724 0.2025837 -0.3027045
0.15109856 -0.019026373 -0.018864244 0.27629393 0.02064966 -0.095767155 -0.03472662 -0.020670077
-0.2147064 -0.192008 0.096817784 -0.2716892 -0.04717126 0.18326503 -0.03979058 -0.038701642
-0.04043105 -0.043938413 -0.2117255 -0.27647522 -0.010401103 0.02089705 0.18645124 -0.0028742536

gnn.conv1d_params1.weight f4 [16, 1, 97]
00000000: f564 aeba 7958 b33c 659b 12bd aea5 7cbc
00000010: fa4a 993d 6226 8b3d eaee a4bd aacb 4dbd
00000020: 54b3 85bc 143d f9bb 5751 46bd c5da 1e3e
00000030: eaf8 17bd 8f4d 82b8 9d64 7bbd 43f2 d73d
00000040: 5da3 3ebd 3ae7 9cbc 0b52 9d3d 28e4 583d
00000050: 3bfe a7bd fb77 763d 53b0 4ebd e06f 9fbc
00000060: d384 153d 5717 b13b 8e91 a73d 5619 18bd
00000070: d8cf 8ebd 02fc f33b 2ba3 033d a9de a53d
00000080: 3f31 47bd ea37 803d 990c 5bbd df1d bbbd
00000090: 229d 0cbe a53a 64bd a126 cabd 87ff 043d
000000a0: 14ef 4fbd 1955 403d ace9 ae3d 4811 e4bc
000000b0: bad1 083c d360 3e3d a44e c1bd 6637 d9bc
000000c0: b0cd be3d e8ee b4bd d93b 973d 248c 3d3c
000000d0: 44b8 13bd e9e9 b53d 0cbc afbd 964b 423d
000000e0: ae6d bebd 59bf a03d 4431 05bd 789b 963d
000000f0: 34e7 6b3c 1a15 e3bd a32d 4cbc 3a9a 603d
00000100: 567d a9bc 5d1d a8bd 183b 0a3a c714 d73d
00000110: a3cc 0c3c 21e1 0f3d 0fe7 7cbd 1223 8c3c
00000120: 8854 963c d152 023d 3037 31bc 3179 373d
00000130: cd47 ed3c 93be d5ba b616 9fbc a4f0 0e3d
00000140: ecc7 1dbe 216b d43b 7444 973d 231d 00bd
00000150: ce73 6d3d d616 00be 5af0 21bd 30c6 cc3c
00000160: 42fc afbc 39be bebc 8576 803a 2288 e6bc
00000170: ba0f 8fbc ae31 e33c c881 94bb f675 8cbb
00000180: a541 923d 8e69 463d 0968 bfbd 3fd0 743d
00000190: 29a4 b5bc 018a 3f3d 0866 a63d 5c62 82bc
000001a0: 95ef 923d 7694 24bd 1ae1 9fbd d9c0 43bd
000001b0: dd5e c8bc 996d 613d 2179 3b3d f04b 2cbd
000001c0: 7100 8dbd 9a32 94bc 2a66 83bd e1d8 893d
000001d0: 4a7c aabd 2189 5f3d 68d0 753d e87f 1fbd
000001e0: f1e4 c4bb 61df 14ba 74d0 46bd 6c01 e8bc
000001f0: 273b 23bd f947 90bc 963c 3cbc d16e 25bd
00000200: 0618 9cbd 21a8 6e3d 5aa7 4dbb 55ff 443d
00000210: 30c4 d23b e749 6b3d ec4b babb 5b25 003d
00000220: 57c6 873b 93f7 29bc e082 1b3d 620b 2f3d
00000230: 70fa 05bd b3d3 253d ac19 063d 77c1 1bba
00000240: 38e2 42bd c0e9 30bd eb48 24bd b709 7f3d
00000250: 24f4 cabc e201 26bd 3bed 363d e502 e53c
00000260: edd2 3c3d ebba 8f3d 967d acbd e774 8e3d
00000270: b38d 23bd 71c3 c9bb b0cf 113a a669 6f3d
00000280: 0c65 0abd ecc8 573c 787e e4bc dbe5 233d
00000290: 1c33 7ebd 9e96 013d 0bf6 c33c 487e 533d
000002a0: d37a 0f3d 53fa f4bc 075b f63c 9399 253c
000002b0: 7b25 28bd 8ecf ea3c 8633 92bd a3bd 323d
000002c0: a4fb dd3b 24d1 d2bc b2a6 52bb e421 933d
000002d0: 2508 3c3d eb9a 263d bbaa 13bd 8257 343d
000002e0: 203a b0bc f95b dd3c db0c 9abc fb73 963c
000002f0: 5c86 0c3d 4034 78bd 0b10 87bc 6f9e 28bd
00000300: 63d8 803c 71a1 0abb 83f4 cb3d 9418 b2bd
00000310: dda8 023d b8c5 af3d d3f3 3abd cf0c 51bc
00000320: 3507 0dbd c555 933d 2261 853c 627d 933c
00000330: c820 8b3d 448a f5bd ed77 52bd 7c5f ab3b
00000340: 256d 5a3d a683 c7bd b4c6 74bc 2fde 2a3b
00000350: a301 633d 21ee d93c 247b 293d b344 81bd
00000360: b712 4ebd cc6d 233d 102e 513c a6ff 8c3d
00000370: cd14 8f3d 8319 943d 1a4d 61bd dff4 c2bc
00000380: 50ed 773b 9f78 993c c9fd 163c 5730 88bd
00000390: cd1a 11bc e239 3c3d d8aa 903c 168a 033d
000003a0: d1f4 8bbd b9a9 62bc 8b0b a4bd 93fe 903d
000003b0: 60e7 80bd 1bf1 90bd 12a1 8e3d 6927 49ba
000003c0: 3907 c43d 2596 0a3d daad 02be 5370 5fbd
000003d0: 5294 163d d388 b9bd b1d7 833d e2c8 38bc
000003e0: 72df 023d 9776 1d3d 997a ce3a bd98 67bd
000003f0: d68b 6c3d 1ca2 11bd 0e06 d7bc ac9f e23d
-0.0013305234 0.021892773 -0.035792727 -0.0154203605 0.07485004 0.0679443 -0.08053382 -0.050243057
-0.016320862 -0.007606158 -0.048417415 0.15513141 -0.037102617 -6.2133295e-05 -0.06137525 0.10544255
-0.046542514 -0.019153226 0.07681664 0.05295196 -0.082027875 0.060173016 -0.050461125 -0.019462526
0.036503624 0.0054043937 0.08182059 -0.037133537 -0.06973237 0.007445813 0.03213803 0.0809911
-0.04863095 0.06260665 -0.05347881 -0.09136557 -0.13731816 -0.05571999 -0.09870649 0.032470252
-0.050765112 0.046956155 0.08540663 -0.027840272 0.008350784 0.046479058 -0.09438828 -0.026515674
0.093165755 -0.0883463 0.07384462 0.011569057 -0.0360644 0.088825054 -0.08580789 0.047435366
-0.092982635 0.07848997 -0.032517686 0.07353872 0.014398385 -0.11088009 -0.0124620525 0.054834582
-0.020689648 -0.082087256 0.0005273088 0.1050201 0.008593711 0.03512681 -0.061743792 0.017106567
0.018350855 0.03181726 -0.01081638 0.04479331 0.028964901 -0.0016307406 -0.01942001 0.03489746
-0.15408295 0.0064824973 0.07386103 -0.031277787 0.057971768 -0.12508711 -0.039535858 0.024996847
-0.02148259 -0.023284065 0.0009800947 -0.028141085 -0.017463554 0.02773365 -0.0045320727 -0.004286523
0.07141427 0.04844051 -0.09346015 0.05976891 -0.022173004 0.04676247 0.0812493 -0.015916042
0.07174603 -0.040180646 -0.078066066 -0.047791336 -0.024459297 0.05503616 0.045769814 -0.042064607
-0.0688485 -0.018090535 -0.064159706 0.067308195 -0.083244875 0.054574136 0.060013205 -0.03894034
-0.0060087373 -0.0005679038 -0.04853864 -0.02832099 -0.039851334 -0.017612444 -0.011489054 -0.040388886
-0.076217696 0.05826581 -0.0031380267 0.048095066 0.006432079 0.057443526 -0.00568532 0.031285625
0.004143517 -0.010373968 0.03796661 0.042735465 -0.03270954 0.040485095 0.032739326 -0.0005941609
-0.04757902 -0.04319167 -0.040108602 0.062265124 -0.024774618 -0.04052914 0.044659834 0.027955482
0.046099592 0.07018074 -0.08422391 0.06955891 -0.039930057 -0.0061573316 0.0005562259 0.058450364
-0.033787772 0.013170462 -0.027892336 0.04001413 -0.06206046 0.03163778 0.023921033 0.051634103
0.035029244 -0.02990452 0.030072702 0.010107416 -0.04105137 0.028663423 -0.071387336 0.043637883
0.0067743827 -0.025734492 -0.0032142815 0.071841985 0.045906205 0.040675085 -0.036051493 0.044028766
-0.021512091 0.027021395 -0.018804958 0.01836585 0.034307823 -0.060596704 -0.016487142 -0.04116672
0.015728181 -0.0021153355 0.09958746 -0.08696094 0.03189932 0.08582634 -0.045642685 -0.012759401
-0.0344307 0.071940936 0.016281668 0.018004123 0.06793362 -0.11989263 -0.0513839 0.0052298885
0.053326745 -0.09741907 -0.014939953 0.0026072373 0.055421483 0.026602807 0.0413772 -0.063119315
-0.050310817 0.039899632 0.01276733 0.068846986 0.06986389 0.072314285 -0.05500517 -0.023798404
0.0037830658 0.018734274 0.0092157805 -0.06649845 -0.008856487 0.04595364 0.01765959 0.03211411
-0.068338044 -0.01383441 -0.08010014 0.07079806 -0.06294131 -0.07077237 0.069643155 -0.0007673414
0.0957169 0.033834595 -0.12761632 -0.05455048 0.036762543 -0.090593 0.06437624 -0.011278363
0.031951375 0.038443174 0.001575309 -0.056542147 0.057750545 -0.03555499 -0.026248004 0.11065611

gnn.conv1d_params1.bias f4 [16]
00000000: 886f c93d e06d 34bd 8779 b53d b2f4 493d
00000010: c3e4 8c3d 449a 1f3d e10d aa3d ab3c 713d
00000020: 4fed 6b3b c68f 3aba 5adc 7ebd 3bf1 883c
00000030: ef19 053d 418c 6eba 12ba 00bd 8ce3 a63d
0.09835726 -0.044050097 0.0886107 0.049305625 0.0687957 0.03896548 0.083034284 0.058895748
0.0035999601 -0.0007116761 -0.062221862 0.01671659 0.032495435 -0.0009099879 -0.03142745 0.0814887

gnn.conv1d_params2.weight f4 [32, 16, 5]
00000000: 8355 153c d566 b7bc 8c2f 0e3e a5ef b43d
00000010: a410 0c3e dee7 b53c 49d2 f23c 912f 36bd
00000020: 9d91 75bd 99b2 b73c dcf7 1abc 6c52 8cbd
00000030: 1c04 5cbd da2b e63b 8853 d33c ee2f d5bd
00000040: 4a04 bdbd 10c4 3b3c e508 343c 30eb 85bd
00000050: 4942 5bba 6844 513d b880 af3d 2439 55bc
00000060: e4b9 743d 0e05 6d3d f75a 023d 689d cf3d
00000070: 88dc a0bd 42d0 253d e82c cf3a 263b 88bd
00000080: f391 78bc ed11 23bd 859b 953d 4f22 f5bb
00000090: eb82 5e3b 4e03 563c a4f6 873c 9c31 a73c
000000a0: 7095 893b 50dd 27b8 c715 8bbc 04b6 5c39
000000b0: 5f3f de39 3569 c234 72bf 2fb3 9b80 47bc
000000c0: fb07 bcbb c1be 02ba c3b0 bbbd 7bd0 03bd
000000d0: 3729 88bc ff45 c13d 8f08 ae3d bb8e 1b3c
000000e0: 8083 c13b 0810 cfbc d885 5ebd 9ea8 323c
000000f0: 8767 62bb a107 45bd a7c4 ca3d c397 82bc
00000100: 3dd2 313c 672b 6b3c 3a30 eabc 5a60 c8bc
00000110: e979 3bbc 98a2 7abc ca1f 29bd c24b 013d
00000120: d0d3 b2bd 54c7 59bd ee0a 4a3d f6b1 ab3d
00000130: d981 a63d 8ef5 53bc 7b95 913d 8a15 7e3d
00000140: cd33 da3b 9588 dabb aae6 113c 04b7 ec3c
00000150: 2dcc 8b3b f165 293c 53cd 2b3c 23b0 d13b
00000160: d063 82bb 5b81 a7bb 4518 ad3c 8a78 21bd
00000170: 5aa8 21bb 3558 9b3b 0036 8dbc 603e 073d
00000180: 45d8 37bd 98a4 a0bc 2d89 9b3c 2593 cbbc
00000190: 8319 7c3c 2200 703b 6d3e 983c 15cf ef3b
000001a0: e214 3bbb 78c2 ee3a 8037 a8bc 757e f5bc
000001b0: b724 0eba 8beb 14bd 3fe5 9eba ce1a 0839
000001c0: 46b4 e43b 2748 cb3b c47d 76bb 044c a63c
000001d0: 55b6 6bbc 2c3c bc3c 0b28 dd3b 7e0a 943b
000001e0: 4be5 adb8 ab9f 56bc 9232 80bc 4ec5 953a
000001f0: a27a 5b39 95f4 f4b8 c840 98b8 4c16 85bb
00000200: 5331 7538 9e38 2bbc a30e 5e3b 4a56 193c
00000210: b33e 2d3c 027a 333c 1706 f6bc 2e38 083d
00000220: 8848 ea3c ce77 973b 0fbb 893c 28ae 51ba
00000230: 9dc3 213d 9224 b43b 4e36 0bbc 3204 9d3c
00000240: 365b 03bc 9ccd 563c bae6 53ba 9736 e8bb
00000250: 3ce1 e2ba 59f7 1d3b 062f 473c eb31 0b3c
00000260: 1bb6 5ebc affd 3a39 d480 5dbb eacd 653c
00000270: 4fd0 23bc 3b21 f2bb f353 123c 3ce1 29bd
00000280: 6188 a1ba c30b a1ba fce7 a23c 9a0d c4ba
00000290: ea41 83ba 0843 bbb4 9c94 16bc d153 a034
000002a0: cdff dcbb d863 ecb3 7400 95bb 9144 63ba
000002b0: 774e 453b 9fd3 fb3b 0edc 923c ae29 bbbb
000002c0: 0a26 b6bc e183 14ba 17f4 a6bc 5ffb 06ba
000002d0: b122 8abc 424a 3aba f5a6 2f3c 0d92 5eba
000002e0: ab7a 5fba 99bd 943c e46f 69ba 8aa3 91bc
000002f0: 82dc c239 9f4c 873b 7d2a a039 1aa1 23bc
00000300: ff6e 5dba 40c6 67ba ef39 babb f1b9 03ba
00000310: 50e0 d0ba e8da cb3a f8e4 d0ba 77c4 973c
00000320: 96d0 953c a163 98b7 c1a0 1abb 5143 aab9
00000330: 19fb 8cb7 703e 54b2 1b93 1fbb 3808 9dbc
00000340: 4751 12b5 fdc3 cdbb f5f6 b736 b23e 55ba
00000350: 1688 13b5 0fb1 4e38 7c83 a733 b02a 72b8
00000360: 4870 a93a 7197 bbbb ae11 34b9 4faa 0dba
00000370: d03c a1bc 1076 b3b9 f291 90bb d6e8 afb9
00000380: daa4 10ba d73c 96bc 0299 5a3b ecf0 f33a
00000390: 985e 01b7 61e9 64bb 0583 7d3c b808 3f36
000003a0: 2d97 9ebb f573 d8bb 2bbd 26b3 177f 17bc
000003b0: 7a1f 59ba a966 acbc 7434 67ba 88c1 98bc
000003c0: afdd dcbd d738 edbd e891 d1bd e0ce a63c
000003d0: 8ccc 9cbd f574 2abd 2297 7a3d 63b3 b13c
000003e0: b10a f0bc 1c8d 79bd 9530 563d ce68 c1bc
000003f0: 5245 7e3d 19a5 14bd 8c5c 2cbd 60cc c73d
0.009114626 -0.022387901 0.13885325 0.08834771 0.13678223 0.02220529 0.029641287 -0.044478957
-0.05995332 0.02242403 -0.009458508 -0.06851658 -0.053714857 0.0070242705 0.025796667 -0.104095325
-0.09229334 0.011460319 0.010988449 -0.06538999 -0.0008364064 0.051090628 0.08569473 -0.013014112
0.05974759 0.05786615 0.031825032 0.10137445 -0.07854563 0.040481813 0.001580623 -0.06651907
-0.015171516 -0.039812017 0.073050536 -0.0074808965 0.0033952545 0.013062311 0.0165971 0.020409398
0.0041987225 -4.0022016e-05 -0.016978158 0.00021048641 0.00042390355 3.6211864e-07 -4.091948e-08 -0.012176658
-0.005738256 -0.0004987531 -0.09164574 -0.032181244 -0.016621215 0.09437179 0.08497726 0.009494479
0.0059055686 -0.025276199 -0.054326862 0.010904459 -0.003454657 -0.04810298 0.0990079 -0.015941506
0.010853347 0.01435361 -0.02858745 -0.024460007 -0.01144264 -0.015297554 -0.041290082 0.03156639
-0.08731806 -0.05316861 0.04932683 0.08383553 0.08130235 -0.012936963 0.07108589 0.06203226
0.006659007 -0.006669114 0.008905092 0.028895862 0.004266283 0.010339246 0.010485965 0.006399171
-0.0039791837 -0.005111856 0.021129737 -0.039421596 -0.0024666996 0.0047407397 -0.017237663 0.03301847
-0.044883985 -0.019609734 0.018986309 -0.024850437 0.015386942 0.0036621173 0.018584454 0.0073183873
-0.0028546383 0.0018215915 -0.020534277 -0.029967526 -0.0005422341 -0.036357444 -0.0012122764 0.00012979956
0.006979498 0.0062036696 -0.0037611583 0.020299919 -0.014386733 0.022977911 0.0067491583 0.0045178523
-8.291992e-05 -0.013099591 -0.015649114 0.0011426599 0.00020931152 -0.000116803836 -7.259991e-05 -0.004061496
5.845849e-05 -0.01045051 0.0033883236 0.009358952 0.010574031 0.010954382 -0.0300322 0.033256702
0.028599039 0.004622436 0.01681283 -0.00079986686 0.039493192 0.0054975236 -0.008496834 0.01916704
-0.008017352 0.0131105445 -0.0008083392 -0.0070865857 -0.0017309557 0.002410373 0.012157207 0.008495788
-0.013593222 0.00017832847 -0.0033798711 0.0140261445 -0.009998395 -0.0073892153 0.008931148 -0.041474566
-0.0012323969 -0.001228683 0.01988601 -0.0014957667 -0.0010014151 -3.4880236e-07 -0.009190705 2.9863307e-07
-0.006744361 -1.1007768e-07 -0.004547173 -0.000866958 0.0030106583 0.0076851393 0.017927196 -0.0057117557
-0.022234935 -0.00056654034 -0.020380063 -0.00051491515 -0.016862245 -0.0007106402 0.010720958 -0.0008490391
-0.0008525054 0.018156813 -0.00089049176 -0.017778177 0.00037166855 0.004129007 0.00030549234 -0.00998714
-0.00084470207 -0.0008841492 -0.0056831758 -0.0005024961 -0.0015935991 0.001555291 -0.0015937379 0.018526299
0.018287938 -1.8166205e-05 -0.0023594352 -0.0003247508 -1.6806227e-05 -1.2354221e-08 -0.0024349156 -0.019168958
-5.450751e-07 -0.006279467 5.4825746e-06 -0.00081346475 -5.49598e-07 4.9279126e-05 7.8004604e-08 -5.7737052e-05
0.0012927139 -0.0057248403 -0.00017172724 -0.0005404101 -0.019682318 -0.00034229504 -0.0044119293 -0.00033552077
-0.0005517729 -0.018339558 0.003335536 0.0018611229 -7.7110235e-06 -0.0034929144 0.015473132 2.8466293e-06
-0.004839799 -0.00660562 -3.8821934e-08 -0.009246609 -0.00082825834 -0.021045046 -0.0008819767 -0.01864697
-0.1078447 -0.11583107 -0.102329075 0.020362318 -0.07656202 -0.041615445 0.061179288 0.021691984
-0.029301973 -0.060925588 0.052292425 -0.023609545 0.062077828 -0.036290262 -0.042080447 0.09755778

gnn.conv1d_params2.bias f4 [32]
00000000: 94f6 0c3d 6271 163c 5c30 3fbc f613 693c
00000010: b91f 68bd dd85 aabd e521 0fbd 785d 3c3d
00000020: 0cfd 99bd b972 ce3d aa93 ce3c 169d 1abd
00000030: 6b3b 673c 970b 95bc 9b1b 8f3d cd8b 55bd
00000040: bdd3 bc3d b93c 08bc df2a c03d 9fcf 52bd
00000050: e527 9cbd 8f99 5abd f8d8 283c 8c56 51bd
00000060: f574 f0bc 2182 8dbd 8429 833d 4548 cfbd
00000070: 152a 613c 3c22 71bc 5254 da3d 226f 6abd
0.034414843 0.009182306 -0.011669245 0.01422595 -0.056670878 -0.08326314 -0.034944434 0.045987576
-0.07518968 0.10080475 0.025216896 -0.037747465 0.014113287 -0.018194003 0.06987687 -0.052135278
0.09220073 -0.008315259 0.09383177 -0.051467534 -0.07624797 -0.0533691 0.010305636 -0.05110793
-0.029352644 -0.06909586 0.06404403 -0.10121206 0.013742943 -0.014717635 0.10660614 -0.05723489

mlp.h1_weights.weight f4 [128, 64]
00000000: 9e09 45bd 6136 bd3c 9065 693d 66e5 8e3c
00000010: 0102 8438 aeda 56bc e707 36bc 0a8f be3b
00000020: 8713 83bd 63b0 8fbd b016 19bd 0c35 703c
00000030: 9d14 513d 64e0 94bd 9295 66bc b43e bd3d
00000040: 9b59 0fbb 84f2 c53c f389 3f3d 7262 5fbd
00000050: e7c2 143e 3edf 633d 7663 e23c d97e 033d
00000060: d57c a9bd 5059 a43d 156d 63bc 2d32 583d
00000070: 537f 6abd 27ba 61bd 2b52 5fbd 0c68 08bd
00000080: 1383 ae3c 6096 f0bd acd9 a737 b2ff 5834
00000090: 4d18 b93c eb75 1b3e 9ae6 ee3c 1991 0f3d
000000a0: 2381 5cbd e9ae 153d d0ac d93c fd7d cabd
000000b0: b055 d1bb bc88 e0bc a522 b9bd 4a09 423d
000000c0: 0dde 1bbc 6375 2a3d 1466 bdbc b227 2a3c
000000d0: 1eb4 4b3d 5d08 9eba 269c f1bc 6266 f2ba
000000e0: d88e a03c 108f c93c f064 88bb 04e7 dc3c
000000f0: c33a 413d ce03 023e 2b2e 1f3d c5ff f1bc
00000100: 1506 a93c 5bef 173d e30d 123c 7a1e 013c
00000110: f0fa 233a 2e99 81b7 1a70 643d b0b5 893c
00000120: bc07 a8bb d6cb f5ba fac5 5a3d 5920 17bd
00000130: f282 eb3b 7e87 033d 4ce9 743d 9c53 ac3d
00000140: d4e3 6a3b 0a9e 383d f60c 10bc eab7 b63d
00000150: f8f5 ea3c d2c4 073d 7639 243d 1607 8abd
00000160: a1c8 b0bb 34ec be3c 66ef 673c c5ab a23b
00000170: 4413 49ba 5f2e 6c3c c9ae c43b 21f5 bcbc
00000180: 005c 313d 9551 cbbc ed2c 80b9 53fa 92bd
00000190: 245d 5b3d 1778 a63d 805f bf3c 4103 7bbd
000001a0: 57b7 73bc fc7a 20bd ac83 40bd 2e91 e6bc
000001b0: 629d a83c 9e30 183d b1cf 98bd 232b 2dbd
000001c0: 4328 30bb 980d 673c e387 bd3b b22a 1e3c
000001d0: 243c bcb6 f3ae 09bb 8288 82bd 9c7e e1bc
000001e0: e219 f43b ee49 7a3c 626e e83a e0f3 23b5
000001f0: f5c2 51bd c376 b83d b108 383d 019c ae3d
00000200: efe5 10bc d488 6c3d 0316 c7bc 88a4 d3bc
00000210: eab2 873c eee6 a1bc 81f8 f2bd 0a54 0d3d
00000220: ef4a 183d cca2 f63d fdc9 20bb fbe7 12bd
00000230: 8714 e0bd 730d c93d ce13 1ebd 82a3 b0bd
00000240: 32c2 2ebd 5fb1 79bc 8ba4 053e e915 ae3d
00000250: 045a 0ebe 286f 943c 433e 4cbd 5a2e c43d
00000260: 7f99 90bd 9938 1ebd 5e2b 31bb 4d34 50bb
00000270: a486 3dbd c44e 463d 1e3a fa3d 2c85 7abd
00000280: c8f2 d43d 6825 023e 97d5 493d 304d 1d33
00000290: 276a ffbc 0c4b ffbd 8022 603d be4b 72bd
000002a0: 309b f83c 7acf 123d 52fd ac3c 2ef5 313d
000002b0: 628f 0f3c 593e 923c c14d e83d bd6a dabd
000002c0: 1171 10bd dea7 bdbc 7d4c 8fbb 1d31 89bd
000002d0: 1694 cb39 3f0e c2bb a9f4 8fbd cc71 533d
000002e0: f8bd 013d 6838 8bbc ebd0 87ba 8d21 01b1
000002f0: 5c65 71bd 5a3a 0e3e b7cc de3c 08f1 e9bd
00000300: 0633 00be 34cc 9cbd 32dc c3bc 0199 29bc
00000310: 6909 80bc d516 72bd 6dde a6bc f79e 20bd
00000320: 9992 2abd f3d1 8d3d e22b 9d3b e0e6 8fbd
00000330: 80c0 73bd 1754 b23d 879a bdbc 3241 94bd
00000340: 4a34 fd3b e85f d1bb e79f e93d 9ed1 81bc
00000350: e1e4 1cbd e329 71bd 3745 bebd e5d3 0f3d
00000360: de34 8dbc 0558 b3bc 9b46 4dbc 850a 3f3a
00000370: 36ce b93d 56c5 8e3d 4223 833d 9764 5c3d
00000380: 12dc 8a3d bdaa ddbc c658 e33c f36f fcbb
00000390: 8f59 003d d109 ab3d db15 03bd 0120 54bd
000003a0: 3dbf a03d d7f2 793c c590 de3c 882c 823d
000003b0: df22 943b f677 013c 2ba5 2f3b e77b 303d
000003c0: 2ef3 743d 6d75 383d fa92 8cbc fbef 31bd
000003d0: 889f 8839 6bb5 3cbb 3e99 a939 050e 663d
000003e0: ca4c bebc 1f1a 06bd b33a e3b9 6fbe 7239
000003f0: 9967 95bd 07c2 003e 0fa4 a43d b86e 2abb
-0.048104875 0.023097219 0.056981623 0.01744337 6.294624e-05 -0.013113661 -0.0111102825 0.0058153914
-0.06400209 -0.07016065 -0.037375152 0.014661085 0.05104505 -0.072693616 -0.014073746 0.09240475
-0.0021873477 0.024163492 0.046762418 -0.054537244 0.14527474 0.055632822 0.027635317 0.032103393
-0.08275763 0.080248475 -0.013880988 0.052782226 -0.057250332 -0.05510917 -0.05452172 -0.03330235
0.021302735 -0.11747432 2.0009313e-05 2.0209589e-07 0.022594595 0.15181701 0.029162694 0.035050485
-0.053834092 0.03654376 0.026571661 -0.098873116 -0.0063883886 -0.02740895 -0.09039811 0.04737214
-0.00951339 0.041615855 -0.023119964 0.010385441 0.04973232 -0.0012056936 -0.029493403 -0.0018493647
0.019599363 0.02460435 -0.0041624233 0.026965626 0.04717518 0.12696764 0.03886239 -0.029540906
0.020632783 0.0370935 0.008914444 0.007880801 0.0006255349 -1.5449328e-05 0.05577097 0.016810268
-0.005127875 -0.0018752764 0.05341146 -0.036896084 0.0071872408 0.032111637 0.0597928 0.08414385
0.0035841363 0.045072593 -0.008792153 0.089217976 0.02868174 0.033146687 0.04009386 -0.06739633
-0.0053950106 0.02330599 0.014156198 0.004964324 -0.00076704123 0.014415353 0.0060022813 -0.023066105
0.04330063 -0.024819175 -0.00024447535 -0.07176652 0.053555623 0.08128374 0.023360968 -0.0612824
-0.014875255 -0.039179787 -0.047000572 -0.028145399 0.020582858 0.03715574 -0.07461489 -0.042277467
-0.0026879467 0.014102362 0.005784021 0.009653734 -5.609838e-06 -0.002100882 -0.06373693 -0.027526192
0.0074493745 0.015276415 0.0017733092 -6.1077117e-07 -0.051211316 0.09007027 0.044930164 0.08525849
-0.008843883 0.057747677 -0.024302488 -0.02583529 0.016564805 -0.019763436 -0.118638046 0.034503974
0.037180837 0.1204277 -0.0024534457 -0.035865765 -0.10941415 0.09817018 -0.038593106 -0.08624937
-0.042665668 -0.0152400425 0.1305105 0.08500273 -0.13901526 0.01811941 -0.049864065 0.09579153
-0.07060527 -0.038628194 -0.0027033905 -0.0031769455 -0.04627098 0.04841496 0.12218116 -0.06116216
0.10397869 0.12709582 0.04927596 3.6624613e-08 -0.031178547 -0.12465486 0.0547204 -0.059154265
0.030347437 0.035842396 0.021116886 0.043446712 0.0087622125 0.017851995 0.113429554 -0.1066489
-0.03526408 -0.023151334 -0.004373132 -0.06698821 0.0003882951 -0.0059221084 -0.07029087 0.051622197
0.03167531 -0.01699467 -0.0010361945 -1.8791042e-09 -0.058934554 0.13889447 0.027197225 -0.11422926
-0.12519464 -0.07656136 -0.023908708 -0.01035142 -0.015629487 -0.059103806 -0.020369733 -0.0392141
-0.041643713 0.0692481 0.004796491 -0.07026458 -0.059509754 0.08707445 -0.023144973 -0.072389975
0.0077271806 -0.0063896067 0.11407452 -0.015847024 -0.038304213 -0.058877837 -0.092905454 0.035114188
-0.017237123 -0.021892557 -0.012529041 0.00072876393 0.09072535 0.069712326 0.06403209 0.053806867
0.06780256 -0.027058953 0.027752291 -0.007703775 0.03133541 0.08351482 -0.032003265 -0.051788334
0.07848976 0.015255651 0.02716864 0.0635615 0.0045207585 0.007902136 0.0026801329 0.043086912
0.059802227 0.04503386 -0.017159928 -0.043441754 0.000260588 -0.0028794657 0.00032348366 0.056165714
-0.023229975 -0.032739755 -0.00043340548 0.0002314986 -0.0729515 0.12574016 0.08039104 -0.0026005935

mlp.h1_weights.bias f4 [128]
00000000: d766 c73b b98b 583c 126a 093b 981f 3a3c
00000010: cd69 a13c ffe1 933c f228 50bc 6543 0f3c
00000020: c840 72bc 30c3 85bc d49f f13c 124a 85ba
00000030: 17fc 2bbc ba45 7c3c a069 febb 667c a43c
00000040: a671 d33c cf02 8a3c c02e 2c3b bdd5 943c
00000050: 0000 0000 902d dfbb 0000 0000 123b 193c
00000060: 56f6 0ebc 0000 0000 a9a8 3a3a 4ebe af3c
00000070: a475 803c a433 4ebc 3b1f 65ba dd20 6bbc
00000080: ecb5 3ebc 4242 66ba dc92 5c3b ff25 2dbc
00000090: 0000 0000 804d d2bb 8631 8c3c de87 803b
000000a0: b107 793b 3d21 bdbc 0843 18bb e227 9d3c
000000b0: e100 c73c 1708 02bc df6c 0d3a 260c 85bb
000000c0: 8dd7 c83c 2916 4fbc e554 20bc a352 25bb
000000d0: 5eed bb3c 4003 1abc 0000 0000 8626 0a3c
000000e0: c8ee 243c e3d6 46bc cb68 ae3c a321 dcba
000000f0: 01ae 5bbb e29b 6c3c 1cc8 ceb9 0000 0000
00000100: d627 8939 ec9b a73c 19e9 fdbb 4772 bdba
00000110: d5cb ef3c a43a 7a3c 237c 973c e65f 453b
00000120: 369c f1bb 67cb 303c a543 06bc 28af 203c
00000130: 309a de3c 0bb3 3b3b 7135 33bc 0000 0000
00000140: 16c3 5fbc 898b 093d 63df f4ba bdc6 fe3b
00000150: 8354 363c 0000 0000 a2f3 403c ec58 333b
00000160: ec68 c536 25da 133d 63b0 23bc 6f7f a1bb
00000170: cb1b 043c 132d 573c 47c8 dc3a 15e7 00bc
00000180: 1ecc 103d f13f dc3b 8af8 b13c 198f fabb
00000190: d0a9 f13c 5677 bf3c 177b 75bc d7cc 543c
000001a0: 0c71 a93c 5155 beba 978a ab3a 7f33 5b3c
000001b0: d933 28bc 73e6 d139 91c3 a13b 9f77 7ebb
000001c0: c024 1d3d 320d c33c 482a fb3b 0000 0000
000001d0: 434c db3b b426 243c 4b16 b53b 41c0 57bc
000001e0: fe3d c43c 7b95 8eba cc6b 34bc 35ca 7d3c
000001f0: 344b 97bb 4a66 fc3b 32ab cc3c cd4d 843a
0.0060852575 0.013216906 0.0020967764 0.011360072 0.01970377 0.0180521 -0.012705075 0.008744095
-0.014785953 -0.016328424 0.029495157 -0.0010169169 -0.010497115 0.0153974835 -0.0077640563 0.020078849
0.025811028 0.016847042 0.0026272982 0.018168325 0.0 -0.0068108514 0.0 0.009352462
-0.008725723 0.0 0.0007120469 0.021453049 0.015681095 -0.012585554 -0.00087403104 -0.014351097
-0.011640053 -0.0008783677 0.003365687 -0.010568141 0.0 -0.00641793 0.017113458 0.0039224466
0.003799897 -0.023087138 -0.0023233313 0.019184057 0.024292411 -0.007936499 0.0005394946 -0.004060286
0.024516845 -0.012639561 -0.009785865 -0.0025226257 0.022940334 -0.009400189 0.0 0.008432036
0.0100666955 -0.012136194 0.021290204 -0.0016794692 -0.0033520462 0.014441462 -0.00039440475 0.0
0.00026160356 0.020460092 -0.0077487347 -0.0014453613 0.029272 0.01527277 0.01849181 0.0030116974
-0.007373358 0.010790682 -0.008194839 0.0098073855 0.027173132 0.0028640653 -0.010938034 0.0
-0.013657352 0.033580337 -0.0018682297 0.0077751563 0.011128548 0.0 0.011776837 0.0027366234
5.883272e-06 0.03609671 -0.009990784 -0.0049285213 0.008063267 0.013133305 0.0016844355 -0.007867594
0.03535091 0.0067214896 0.021724958 -0.007646453 0.029499918 0.023372333 -0.01498296 0.012988291
0.020683788 -0.0014521276 0.0013087568 0.013378977 -0.010266268 0.00040035284 0.0049366434 -0.0038828624
0.038365126 0.023810003 0.0076649524 0.0 0.0066924407 0.010018993 0.005526339 -0.0131683955
0.023955341 -0.0010878289 -0.011012029 0.015490104 -0.004617119 0.0077026235 0.024983976 0.0010093987
